report/results/5_gan/exp12/Mix_Training/checkpoints/albedo_gen_model.pkl (torch_old, 367713 bytes, 14 tensors)

conv1.0.weight f4 [128, 128, 1, 1]
0	0xbc9bf414	-0.019037284
1	0xbed04c48	-0.40683198
2	0xbff6bff2	-1.9277327
3	0x3e54a598	0.20766294
4	0x3eaeee66	0.3416626
5	0x40f52316	7.660533
6	0xbf1d775b	-0.61510247
7	0x3f82d5cc	1.0221496
8	0x3ff95cb4	1.9481416
9	0x409e87f7	4.9540973
10	0x3fd5a150	1.6689854
11	0x3f726982	0.9469224
12	0xc012d77f	-2.2944028
13	0x40b8d018	5.775402
14	0xbf875a74	-1.0574479
15	0xbfe1cf30	-1.7641354
16	0x3e327156	0.17426047
17	0x3eab07ce	0.33404392
18	0x401ab90e	2.4175448
19	0x3fb0eac2	1.3821642
20	0xc034a954	-2.822835
21	0x3f51e209	0.8198553
22	0xc080b1de	-4.0217123
23	0x409b5bc8	4.854954
24	0xc0fc5688	-7.885563
25	0x3c76dfdf	0.015068023
26	0x4029ad86	2.651216
27	0xc09ff494	-4.9986057
28	0xbde4180d	-0.111374
29	0xbe96b489	-0.29434612
30	0xc092eb71	-4.5912404
31	0xc0363724	-2.8471155
32	0x40ba55f5	5.822993
33	0x4090dd46	4.527011
34	0xbee262a6	-0.44215888
35	0x3e51aedb	0.20476858
36	0x3e25072c	0.16116017
37	0x3e2c5bce	0.16831896
38	0xbf992fa2	-1.1967661
39	0xbfeebf86	-1.8652198
40	0x3f7b9c08	0.9828496
41	0x40614b7b	3.520232
42	0xbfde4321	-1.7364236
43	0xbdb32c8b	-0.0874873
44	0xc00a33e1	-2.1594164
45	0xbf0a23cb	-0.53960866
46	0xbfcdb5aa	-1.6071064
47	0x3e531e72	0.20617083
48	0xc08dd776	-4.4325514
49	0xbfef8619	-1.8712798
50	0x40b49e56	5.644328
51	0xbf97467b	-1.1818384
52	0xc07698e0	-3.8530807
53	0xbda562f0	-0.080755115
54	0x400e1309	2.2199118
55	0xbe9cf5c2	-0.30656248
56	0x3f2d09b4	0.6759293
57	0xbf603bde	-0.8759135
58	0x3fcf5dde	1.6200521
59	0x40134201	2.3009036
60	0x4042aea0	3.0419083
61	0x40768be5	3.8522885
62	0xc10f6088	-8.961067
63	0xbd0db346	-0.034594797
64	0xbe0f5a22	-0.13999227
65	0x3e429eab	0.1900584
66	0xbfd6c954	-1.678019
67	0x3e9be8d3	0.30451068
68	0x3e331e35	0.17491992
69	0x40c9e7dc	6.309553
70	0xbe28cfd1	-0.16485526
71	0x3e267bd8	0.1625818
72	0x3fd9d646	1.7018516
73	0xbfb30fa4	-1.3989148
74	0xc09c2ac3	-4.88022
75	0x3e4f5d26	0.20250377
76	0xc0abf9fc	-5.3742657
77	0x3fda2c69	1.7044803
78	0xbe022b83	-0.12711911
79	0xbf01baa6	-0.5067543
80	0x3e899bae	0.26876587
81	0x3f3a6710	0.7281351
82	0x3daaaffa	0.08334346
83	0x408e784e	4.4521856
84	0x3f2e069c	0.67978835
85	0xbf190596	-0.5977415
86	0xbe78761e	-0.24263808
87	0xbfaa6c0e	-1.3314226
88	0xbf0c080f	-0.54699796
89	0x3e993955	0.29926553
90	0x400739d0	2.1129036
91	0x3fdc8f3e	1.7231214
92	0xc026b011	-2.6044962
93	0x3f07319c	0.5281007
94	0x3af9b2fb	0.0019050533
95	0x3facc802	1.3498538
96	0xc0866874	-4.2002506
97	0x3dcc94e2	0.09989335
98	0xbf357898	-0.70887136
99	0xbed2a528	-0.4114163
100	0xc0933ea5	-4.601397
101	0x407fbf81	3.9960635
102	0x3f897a1f	1.0740393
103	0x40028e10	2.0399208
104	0x3f3d3b53	0.73918647
105	0x4020e4e2	2.51397
106	0x3d65cf3b	0.056105834
107	0xbdb371b6	-0.08761923
108	0xc0664775	-3.5981114
109	0x3e54fdc5	0.2079993
110	0xbfb08239	-1.3789741
111	0x3ee44274	0.4458195
112	0xc06135da	-3.5189118
113	0x3fdc4b48	1.7210474
114	0x40056ccb	2.0847652
115	0x4092a8f1	4.5831227
116	0x3f9be107	1.2178048
117	0x3f5d0b99	0.8634582
118	0x40e802be	7.2503347
119	0xbe084fa4	-0.1331163
120	0xbfdcf94b	-1.7263578
121	0xbf213148	-0.6296582
122	0xc00928b9	-2.1431105
123	0xbfdf7c64	-1.7459836
124	0xbd855f2f	-0.065122955
125	0x3fb5f54c	1.4215484
126	0xbe1d275b	-0.15347044
127	0xc089bf31	-4.304589
128	0x3adb32dd	0.0016723532
129	0x3eef29de	0.4671163
130	0xbd711e9c	-0.058867082
131	0x3e2ba537	0.16762243
132	0xbe50ec90	-0.20402741
133	0x3d771db1	0.06033105
134	0xbe2bd10c	-0.16778964
135	0xbe77b523	-0.24190192
136	0xbe8e4f07	-0.27794668
137	0xbe6b915f	-0.23004673
138	0xbe87140c	-0.26382482
139	0xbdf9dd74	-0.12200442
140	0xbed8590d	-0.4225544
141	0x3c7efaa6	0.015562689
142	0xbde46195	-0.11151425
143	0xbd80c229	-0.06287033
144	0xbda7fe64	-0.08202818
145	0xbe8c63a9	-0.27419785
146	0xbea18764	-0.31548607
147	0xbdc737c4	-0.09727433
148	0xbddd39a5	-0.108020104
149	0xbe81e5ac	-0.25370538
150	0x3e2e2617	0.17006718
151	0x3cc55caf	0.024092047
152	0xbe5da96f	-0.21646665
153	0xbe08c077	-0.1335467
154	0x3e8e13c0	0.27749443
155	0x3cd611e0	0.02613157
156	0xbe0fe53c	-0.1405229
157	0xbd8dd86f	-0.06926047
158	0xbeba5eb4	-0.36400378
159	0xbd13cddc	-0.036084995
160	0x3e36c83c	0.17849821
161	0x3d8397e6	0.06425457
162	0xbc259fb3	-0.010108876
163	0x3e3a5cb1	0.18199421
164	0x3e0ccf43	0.13750939
165	0xbd8002c0	-0.062505245
166	0x3d3bbd2f	0.045834716
167	0x3da5b7ea	0.080917194
168	0x3d8e6758	0.06953305
169	0xbeb30350	-0.34963465
170	0xbe220282	-0.15821269
171	0x3b5b1c79	0.003343372
172	0xbdb2aeb4	-0.08724728
173	0xbe8dd1e4	-0.27699196
174	0xbdc4783c	-0.095932454
175	0x3d810d7c	0.063014
176	0x3e0bfd9e	0.13670966
177	0xbe438035	-0.19091876
178	0xbeee536c	-0.4654802
179	0x3e28c0eb	0.16479842
180	0x3e90bcc9	0.28269032
181	0xbdfee538	-0.12446064
182	0xbe95c252	-0.29249817
183	0x3e094a1b	0.13407175
184	0x3e175273	0.14777546
185	0x3e66d9a0	0.22543955
186	0x3f0c36d0	0.5477114
187	0x3f07f53d	0.5310858
188	0xbe1bd1f3	-0.15216808
189	0xbe589249	-0.21149553
190	0x3ebad6cb	0.36492
191	0x3cc9a129	0.02461298
192	0xbe31d233	-0.17365341
193	0x3d84d061	0.064850576
194	0xbe7eeee8	-0.24895823
195	0xbea4980c	-0.32147253
196	0xbd844b14	-0.064596325
197	0x3e76077b	0.24026291
198	0x3d26743b	0.04063819
199	0x3e26c545	0.1628619
200	0x3e451b3f	0.19248675
201	0x3e8ac561	0.27103713
202	0xbe698a3e	-0.22806641
203	0x3d8bb4e8	0.068216145
204	0x3cfc3904	0.030788906
205	0xbec523a4	-0.38503754
206	0xbce4c6a1	-0.027926745
207	0xbe746b7e	-0.2386913
208	0x3b2caa81	0.0026346745
209	0xbe041721	-0.12899448
210	0xbe822f1d	-0.2542657
211	0xbea2b852	-0.3178125
212	0xbebe7751	-0.37200406
213	0xbe0d8361	-0.13819648
214	0xbeadfbfa	-0.33981305
215	0xbe4cbeec	-0.19994706
216	0xbe2997d1	-0.1656182
217	0xbcf9c7bb	-0.030490747
218	0x3e15eb96	0.1464065
219	0xbe5ee2e8	-0.21766245
220	0xbf0e848b	-0.55670995
221	0xbec02194	-0.37525618
222	0xbf0cfa25	-0.5506919
223	0xbf03e25a	-0.5151726
224	0xbe4751eb	-0.19464843
225	0xbdc97fce	-0.0983883
226	0xbe9c9c19	-0.30587843
227	0xbdb84ba8	-0.08998805
228	0xbe1b463f	-0.15163516
229	0xbef0ce81	-0.4703255
230	0xbee3e7e1	-0.44512847
231	0x3da1aee8	0.07894689
232	0xbe851274	-0.2599064
233	0xbe09406c	-0.13403481
234	0xbeb8be85	-0.36082855
235	0xbd9ee975	-0.07759372
236	0xbeeda9af	-0.4641852
237	0xbdca20f5	-0.09869567
238	0x3eef3711	0.467217
239	0xbd52af78	-0.05143687
240	0x3e14a6a4	0.14516693
241	0xbdb8a238	-0.09015316
242	0x3ee81c3c	0.4533404
243	0xbea91d6c	-0.3303026
244	0xbe238a22	-0.15970662
245	0xbdf7c0be	-0.120973095
246	0xbe43c998	-0.1911987
247	0xbd8416d0	-0.06449664
248	0x3bab6496	0.0052304966
249	0x3e585f03	0.21129994
250	0x3e09c1d4	0.13452846
251	0xbe945822	-0.2897349
252	0x3ba5636c	0.0050472524
253	0x3dc0c8e4	0.09413317
254	0x3de90221	0.11377359
255	0x3e1e8a22	0.15482381

conv1.0.bias f4 [128]
0	0x43be3ce1	380.47562
1	0xbfb3d98c	-1.4050765
2	0xc229602a	-42.34391
3	0xc3553680	-213.21289
4	0xc1191202	-9.566896
5	0xc1538449	-13.219796
6	0xc412139b	-584.30634
7	0x3db0fce6	0.086419865
8	0xc3b41fb7	-360.24777
9	0xc4080cd1	-544.20026
10	0xc1a5f9ad	-20.746912
11	0xc280efce	-64.46837
12	0xc26f87d1	-59.882633
13	0xc1c88326	-25.064037
14	0xc375491b	-245.28557
15	0xc3157e9e	-149.4946
16	0xc30ebbaa	-142.73306
17	0xc4042afc	-528.67163
18	0xc0f84179	-7.7579923
19	0xc1161902	-9.381105
20	0xc394607c	-296.75378
21	0xc1e81bdc	-29.013603
22	0xc3809354	-257.151
23	0x3cbf27fd	0.023334498
24	0xc38360cd	-262.75626
25	0xc0811943	-4.0343337
26	0xc39486e0	-297.0537
27	0xc17811ea	-15.504374
28	0xc0bb8c78	-5.860897
29	0xc42a85fc	-682.0935
30	0xc32b2e3d	-171.18062
31	0xc117b4f9	-9.481683
32	0xc1279781	-10.474488
33	0xc385a618	-267.2976
34	0xbd6ca64b	-0.057775777
35	0xc4162bde	-600.6854
36	0xc194c9f2	-18.598606
37	0xc3a264db	-324.78793
38	0xc0024ed1	-2.0360606
39	0xc20b5555	-34.833332
40	0xc237dfb2	-45.968452
41	0xc31402a3	-148.0103
42	0xc30b5446	-139.3292
43	0xc2a61f38	-83.060974
44	0xbfeed51e	-1.8658788
45	0xc142cd1c	-12.175076
46	0xc38b3d28	-278.47778
47	0xc214a857	-37.164394
48	0xc0c49217	-6.142833
49	0xc3ecf299	-473.8953
50	0xc1de9041	-27.820436
51	0xc37c088e	-252.03342
52	0xc2a80637	-84.01214
53	0x3c7061bd	0.01467174
54	0xc0c3bb41	-6.116608
55	0xc1ed4772	-29.659885
56	0xc1b9df71	-23.234102
57	0xc3d88cce	-433.10004
58	0xc2e90d76	-116.52629
59	0xc1983782	-19.027103
60	0xc3694a23	-233.2896
61	0xc1d135ef	-26.151335
62	0xc3029e10	-130.61743
63	0xc19054b8	-18.041367
64	0xc3a9bbd9	-339.46756
65	0xc3df8ee6	-447.1164
66	0xc1fb57af	-31.417814
67	0xc3309b2f	-176.60619
68	0xc2697a50	-58.369446
69	0x44055f11	533.4854
70	0xc3cfafe2	-415.37408
71	0xc1ffd4ff	-31.979002
72	0xc2466585	-49.59914
73	0xc34d1aa7	-205.10411
74	0x3dba1752	0.09086479
75	0xc34726cc	-199.15155
76	0xc01183a7	-2.2736604
77	0xc13cfd87	-11.811896
78	0xc35d56ac	-221.33856
79	0xc0d96869	-6.7939954
80	0xc113aa62	-9.229097
81	0x3dbed8b2	0.09318675
82	0xc3a3bfa3	-327.49716
83	0xc05326c0	-3.29924
84	0xc0269675	-2.6029332
85	0xc08f662f	-4.4812236
86	0x3e51feeb	0.205074
87	0x3fa567d7	1.2922314
88	0xc10b359c	-8.700588
89	0xbfad552d	-1.3541619
90	0xc2c9c99c	-100.89377
91	0xc39c98e0	-313.19434
92	0xc269f8c5	-58.49294
93	0xc4215cfd	-645.45294
94	0xc0effded	-7.499747
95	0xc37bb1c0	-251.69434
96	0xc3ad74d4	-346.91272
97	0xc398abea	-305.34308
98	0xc3426674	-194.4002
99	0xc3ba27d9	-372.3113
100	0xc2f66b9a	-123.21016
101	0xc39ff022	-319.87604
102	0xc150ab78	-13.0418625
103	0xbfb42b73	-1.407576
104	0xc33539b3	-181.22539
105	0xc145ab98	-12.354393
106	0xc2f6b03e	-123.34422
107	0xc10e9341	-8.910951
108	0xc06bf83e	-3.6870265
109	0xc293d434	-73.91446
110	0x431ee7cf	158.9055
111	0xc19e7deb	-19.811483
112	0xbe01833c	-0.12647718
113	0xc40c1b12	-560.423
114	0xc391f7c8	-291.9358
115	0xc302dbc4	-130.85846
116	0xc383d9d6	-263.70184
117	0xc0e36198	-7.1056633
118	0x4313dfab	147.8737
119	0xc3806ac1	-256.834
120	0xc38313d4	-262.1549
121	0xc1e2358c	-28.276146
122	0xc2ac2a4c	-86.08261
123	0xc0a689dc	-5.2043285
124	0xc1ec73b8	-29.556503
125	0xc1175488	-9.4581375
126	0xc02de142	-2.7168736
127	0xc170770d	-15.029065

conv1.1.weight f4 [128]
0	0xc042514a	-3.0362115
1	0x3b4e61f4	0.003149149
2	0xbe5e0bcc	-0.21684188
3	0x400b93ef	2.1809042
4	0x3d256849	0.040382657
5	0x3e84291f	0.25812623
6	0x40dee74c	6.9657345
7	0xbbc0d5dc	-0.005884869
8	0x3fe6e317	1.8038052
9	0x40982eaa	4.7556963
10	0x3db41076	0.08792202
11	0xbd8439ca	-0.06456335
12	0x3b172295	0.0023061384
13	0x3ee90b68	0.45516515
14	0x3f3b7740	0.73228836
15	0x40493ce7	3.1443422
16	0x407e1c0e	3.9704623
17	0x406687da	3.6020417
18	0x3e8a776a	0.2704423
19	0x3a936849	0.0011246289
20	0x3fccb44e	1.5992525
21	0xba15cc31	-0.0005714326
22	0x40422e07	3.0340593
23	0x3bff08a6	0.0077830134
24	0x407b2b98	3.9245358
25	0xbddface6	-0.1092165
26	0x4083dfb4	4.1210575
27	0x3b262e13	0.0025357052
28	0xbb4ee035	-0.0031566743
29	0x40971b52	4.722085
30	0x3d73d6df	0.05953109
31	0xba954714	-0.0011388981
32	0x3e3c87e2	0.1841121
33	0x3fd5bc3d	1.6698071
34	0xbb1a6f4a	-0.0023564869
35	0x4049dd3c	3.154128
36	0xbc0354f5	-0.008015861
37	0x408f74ee	4.4830236
38	0xbd5bb183	-0.053636085
39	0xbb90690c	-0.004407054
40	0xb995a5f2	-0.00028543134
41	0x406f7ded	3.742061
42	0x3fd4e0d9	1.6631118
43	0x3f370ccc	0.715039
44	0xbbd7dbdc	-0.0065874886
45	0x3cdde714	0.027087726
46	0x40760b4a	3.844439
47	0x3f45888e	0.7716149
48	0x3a83c44b	0.0010053007
49	0x40044d91	2.0672343
50	0x3dc7659f	0.097361796
51	0x407de1a4	3.966897
52	0x3d5c12b5	0.053728778
53	0x3b2d991b	0.0026488963
54	0x3e8e95b6	0.27848595
55	0x3e695297	0.22785412
56	0xbb738329	-0.0037157035
57	0x3fa8b89d	1.318134
58	0x3f04fca3	0.51947993
59	0x3e9a27fe	0.30108637
60	0x403114db	2.766898
61	0x38921e82	6.967505e-05
62	0x40267cc9	2.6013663
63	0xbbb8a6d1	-0.0056351204
64	0x40865f38	4.1991234
65	0x405098f9	3.2593367
66	0x3ece777e	0.4032554
67	0x40837672	4.1082087
68	0x40584172	3.3789945
69	0xc0a30dfc	-5.095457
70	0x3fbd126f	1.477125
71	0x3ec22074	0.37915385
72	0xbe661618	-0.22469366
73	0x403072c1	2.757004
74	0xbd1a9f99	-0.03774986
75	0x4026f933	2.60896
76	0xba7e9e42	-0.00097129133
77	0x3da7cda1	0.081935175
78	0x40057669	2.0853522
79	0xbc37aec0	-0.011211097
80	0xbac55ca5	-0.0015057517
81	0x3daa3259	0.08310384
82	0x4084c4de	4.1490316
83	0xbb95379e	-0.004553749
84	0xbe9cf817	-0.30658028
85	0xbbf4aa53	-0.0074665933
86	0xbdbc8a28	-0.09206039
87	0xbdc35cc4	-0.09539178
88	0xbb5ef9d5	-0.0034023423
89	0x395cb683	0.00021048826
90	0x3fbd08fd	1.4768368
91	0x400d1619	2.2044737
92	0x3fb63688	1.4235392
93	0x408581ab	4.1720786
94	0x387eafd5	6.0722075e-05
95	0x4058c93d	3.3872826
96	0x3fb1113e	1.3833387
97	0x409c4530	4.8834457
98	0x40249627	2.5716646
99	0x403ba844	2.932145
100	0x402932c4	2.6437235
101	0x4049b750	3.1518135
102	0xba2a2a20	-0.00064912625
103	0xbe4fc9b7	-0.20291792
104	0x3f80fcf8	1.00772
105	0xbe9c52c1	-0.30531886
106	0x3fd52a9a	1.6653626
107	0x3b55f84c	0.0032649217
108	0xba45ff5f	-0.0007553007
109	0x3f234cd3	0.637891
110	0xc058a772	-3.38522
111	0xbd901183	-0.0703459
112	0x3c2d50ae	0.010578318
113	0x40b8b789	5.772404
114	0x3f92888c	1.1447921
115	0x4033dc2c	2.8103132
116	0x4040fd70	3.0154686
117	0xbb20af56	-0.002451857
118	0xc00ca1be	-2.197372
119	0x406e623d	3.724746
120	0x4081d655	4.0574136
121	0x3e5465d6	0.20741972
122	0xbe81bb46	-0.2533819
123	0x3a4d22e5	0.0007825329
124	0x3e321856	0.17392096
125	0x3d46056b	0.04834501
126	0xbca5ed47	-0.020254744
127	0xbba71e55	-0.0051000514

conv1.1.bias f4 [128]
0	0x4108eb3e	8.557432
1	0xbe73b824	-0.23800713
2	0xbf27ab92	-0.6549617
3	0x408c5f58	4.3866386
4	0xbe111c17	-0.14170872
5	0xbf517fee	-0.8183583
6	0x41cf7204	25.930672
7	0xbf50968d	-0.8147972
8	0x40eacb40	7.337311
9	0x41f2d4bc	30.353874
10	0xbf008f4a	-0.5021864
11	0xbe1b3822	-0.15158132
12	0xbe2dae19	-0.16960944
13	0x40a851ed	5.2600007
14	0x3e915dea	0.28391963
15	0x3efaa31d	0.4895257
16	0xbeae20f7	-0.34009525
17	0x41a2896b	20.317099
18	0xbf4ee3f1	-0.8081656
19	0xbe9f52ba	-0.31117803
20	0xbf948b88	-1.1605082
21	0xbe13c483	-0.14430432
22	0xbf635931	-0.8880797
23	0xbd901979	-0.070361085
24	0x3d9bb368	0.076025784
25	0xbeebf6c7	-0.46086714
26	0xc0162a04	-2.3463144
27	0xbd42494d	-0.047433186
28	0xbde12942	-0.109941974
29	0xc08f72e3	-4.4827743
30	0xbff7eaa8	-1.9368486
31	0xbe8c9073	-0.27453956
32	0xbea25cdc	-0.3171147
33	0x3f05a331	0.52202135
34	0xbd2d1636	-0.04225751
35	0xc03c9689	-2.946688
36	0xbdde7007	-0.10861211
37	0xbf65cef0	-0.89768887
38	0xbed656aa	-0.41862994
39	0xbd99b399	-0.07504959
40	0xbea8ffb2	-0.3300758
41	0x3fa8f81f	1.320072
42	0x409ee36c	4.9652615
43	0x4117e2ed	9.492902
44	0xbd28f04f	-0.0412448
45	0xbdb9e494	-0.09076801
46	0xbfe90706	-1.8205268
47	0x4122c018	10.171898
48	0xbdf4fd75	-0.119624056
49	0x4115a1b0	9.3519745
50	0x40ed9a59	7.4250913
51	0xc026fc38	-2.6091442
52	0xbfa1fb09	-1.2654735
53	0xbddb1ff9	-0.10699458
54	0xbef9e0c5	-0.48804298
55	0xbfb6f321	-1.4292947
56	0xbf14a47f	-0.580635
57	0x3fc50897	1.5393246
58	0x3f07a784	0.52989984
59	0xbf339ed2	-0.70164216
60	0xbf1e8695	-0.61924106
61	0xbe86b97c	-0.26313388
62	0x3edcd1bd	0.43128768
63	0xbe4967f1	-0.19668557
64	0xbf25c218	-0.6474929
65	0xc0453e25	-3.081918
66	0x4104c913	8.29909
67	0xc023b9aa	-2.558207
68	0x4007158c	2.11069
69	0x4204cedc	33.20201
70	0xc00364d2	-2.0530286
71	0x411ab77d	9.669797
72	0xbf27a2f8	-0.65483046
73	0xc00109c7	-2.0162218
74	0xbd41fa49	-0.04735783
75	0xc025757e	-2.5852962
76	0xbcf1e2f4	-0.029527165
77	0xbf2b2d18	-0.6686568
78	0x410f827e	8.969358
79	0xbdb6cf84	-0.08926299
80	0xbec318b1	-0.38104776
81	0xbf376096	-0.71631753
82	0xbf8643a9	-1.0489398
83	0xbd1182b6	-0.035525046
84	0xbf7d3ec7	-0.98923916
85	0xbcdff679	-0.027339207
86	0xbe377941	-0.17917348
87	0xbe9d8ae9	-0.30770043
88	0xbd292105	-0.041291256
89	0xbda3c0af	-0.07995736
90	0x40439855	3.0561726
91	0xbd4d3847	-0.0501025
92	0x3fe906ce	1.8205202
93	0xc08dfeb6	-4.4373426
94	0xbda9fcd6	-0.08300178
95	0xbffced1d	-1.9759861
96	0xbf200af4	-0.62516713
97	0xbf3c6f34	-0.7360718
98	0xbef241a5	-0.47315708
99	0x4093fcc6	4.624606
100	0x3fc94a8e	1.5725877
101	0xbf51bc71	-0.81928164
102	0xbdbf518a	-0.09341724
103	0xbe9c9bbb	-0.30587563
104	0x3e4cc203	0.19995885
105	0xbf7be26d	-0.98392373
106	0x401d2c49	2.455828
107	0xbe68acbf	-0.22722147
108	0xbd932fe2	-0.07186867
109	0x4067caa0	3.6217422
110	0x3fb7ceab	1.4359945
111	0xbf8b65de	-1.0890462
112	0xbe981e0e	-0.2971043
113	0xc0317967	-2.7730348
114	0x3f0998f4	0.5374901
115	0x407ccdfe	3.9500728
116	0xbf56540c	-0.83721995
117	0xbdc2ea86	-0.09517388
118	0x40b36de0	5.6071625
119	0xbfa727ee	-1.305906
120	0x3f3c8a94	0.73648953
121	0x4046554c	3.098956
122	0xbfcae94c	-1.5852447
123	0xbdae22db	-0.08502742
124	0xbf3610b5	-0.7111924
125	0xbe28db02	-0.16489795
126	0xbe02a242	-0.12757209
127	0xbd5e45d2	-0.054265805

conv1.1.running_mean f4 [128]
0	0x43b47d1b	360.9774
1	0x41f1b574	30.2136
2	0x42851be7	66.5545
3	0xc3b42ef9	-360.36697
4	0x415c3aa0	13.764313
5	0x41ac843d	21.56457
6	0x42d29e26	105.30888
7	0x42a4575d	82.17063
8	0xc3f2d647	-485.67404
9	0x434fbf15	207.74641
10	0xc335b18a	-181.69351
11	0x4130d10b	11.051036
12	0xc31b7c6b	-155.48601
13	0x423df404	47.488297
14	0x428aa6c3	69.32571
15	0xc33eefce	-190.93674
16	0xc3d92a43	-434.33017
17	0xc42a5694	-681.3528
18	0xc06f916d	-3.743251
19	0xc1c7ba9a	-24.966114
20	0xc403caee	-527.1708
21	0x4264b21d	57.17394
22	0xc395a3ed	-299.28067
23	0xc1748898	-15.283348
24	0xc3df60b8	-446.7556
25	0x41d82c8e	27.021755
26	0x425de8de	55.47741
27	0x41e8a24f	29.079252
28	0xc2a622dc	-83.068085
29	0xc433e5bc	-719.5896
30	0xc41895eb	-610.34247
31	0x4167788c	14.46693
32	0x4216ce7b	37.70164
33	0xc2465570	-49.583435
34	0x41cfbe30	25.967865
35	0xc454c841	-851.12897
36	0xc1eb1ad8	-29.388107
37	0xc3f4cd07	-489.60178
38	0xc212b815	-36.679768
39	0x421187b0	36.382507
40	0x41151070	9.316513
41	0xc1c5be64	-24.717964
42	0x43adf141	347.8848
43	0x42ae2e1b	87.09005
44	0xc2034f68	-32.827545
45	0x4231e0ae	44.469414
46	0xc32a8e68	-170.55627
47	0x435698d8	214.59705
48	0x417ef877	15.93566
49	0x434ee3e9	206.89027
50	0x429bc2ba	77.880325
51	0x42a884ee	84.25963
52	0xc384531b	-264.64926
53	0xc1c09db9	-24.077013
54	0xc258ddff	-54.216793
55	0xc2a71388	-83.53815
56	0xc1db9166	-27.445995
57	0xc0fa7189	-7.8263593
58	0x40d6aff1	6.708977
59	0xc279d696	-62.459557
60	0xc1deb460	-27.838074
61	0x423dd8d0	47.46173
62	0xc3a35683	-326.67587
63	0x428fcec5	71.90385
64	0x42bb3093	93.59487
65	0xc3b68cd9	-365.10037
66	0x3f904c0e	1.127321
67	0xc3919a2a	-291.2044
68	0x42a7077a	83.5146
69	0xc26ff26d	-59.986744
70	0xc30d1cd5	-141.11263
71	0xc300c8b1	-128.78395
72	0xc165f9da	-14.373499
73	0xc1390403	-11.563479
74	0x41fc920a	31.571308
75	0x434ea51d	206.64497
76	0xc23da372	-47.409615
77	0x41e81ac6	29.013073
78	0x4173f808	15.2480545
79	0xc03bddd9	-2.9354155
80	0x41f5d7b4	30.730324
81	0xc103de4d	-8.241773
82	0x425e42e2	55.565315
83	0xc1c3b0b2	-24.461277
84	0x40e3bd58	7.1168633
85	0x41cb8876	25.441631
86	0x4208be19	34.185642
87	0x42659770	57.39789
88	0x41bdeeb8	23.741562
89	0xc26f9afc	-59.901352
90	0x4254c541	53.19263
91	0xc39a1404	-308.15637
92	0x41a7561b	20.917044
93	0xc3db4749	-438.55692
94	0x41a1620a	20.17287
95	0xc2fdd3fc	-126.91403
96	0xc3062761	-134.15382
97	0xc35519d4	-213.10089
98	0xc22c26cb	-43.037884
99	0xc404bcdb	-530.95087
100	0xc3b75768	-366.68286
101	0xc3efaf15	-479.36783
102	0x41995dba	19.170765
103	0x4029d5f5	2.653684
104	0xc2c8f7cb	-100.48397
105	0x425667ea	53.60148
106	0xc3314644	-177.27448
107	0xc2802fbd	-64.09324
108	0xc2063c25	-33.558735
109	0x431f8aac	159.54169
110	0x43f2e9dd	485.82706
111	0x42950d96	74.526535
112	0x413432e1	11.262422
113	0xc3f62583	-492.29306
114	0x4339d63c	185.83685
115	0xc3bb3f91	-374.4966
116	0xbfc62f39	-1.5483161
117	0xc15cb7e7	-13.794898
118	0x43ab0b7e	342.08978
119	0x434ac22a	202.75845
120	0xc37f6f98	-255.43591
121	0xc17cf0ab	-15.808757
122	0xc360b56b	-224.70866
123	0x40578097	3.3672235
124	0xc320a300	-160.63672
125	0xc09c2329	-4.879292
126	0x4211a000	36.40625
127	0x41e46ad3	28.55216

conv1.1.running_var f4 [128]
0	0x46910da2	18566.816
1	0x44ee2a9e	1905.3318
2	0x48493ce1	206067.52
3	0x4888e4e0	280359.0
4	0x469db5da	20186.926
5	0x47a8f69a	86509.2
6	0x46e74a33	29605.1
7	0x45fdbc06	8119.503
8	0x468f1b60	18317.688
9	0x46d5a601	27347.002
10	0x4539cc27	2972.7595
11	0x4929f8fc	696207.75
12	0x44d91d91	1736.924
13	0x49c019f8	1.573695e+06
14	0x470cb017	36016.09
15	0x4818ec3e	156592.97
16	0x4730938c	45203.547
17	0x46b1efd9	22775.924
18	0x464acd24	12979.285
19	0x46c92fb8	25751.86
20	0x46af22a9	22417.33
21	0x4675e3b7	15736.929
22	0x4814dfeb	152447.67
23	0x43508697	208.52574
24	0x482741d5	171271.33
25	0x45692703	3730.4382
26	0x483f9c43	196209.05
27	0x468e939b	18249.803
28	0x42d20199	105.00312
29	0x464741e0	12752.469
30	0x470412b0	33810.688
31	0x4501f6d9	2079.428
32	0x47ff9967	130866.805
33	0x4717e94d	38889.3
34	0x43a3c56a	327.5423
35	0x45e88e5c	7441.795
36	0x4787fb18	69622.19
37	0x483cdb97	193390.36
38	0x4547f5ce	3199.3628
39	0x4796abc4	77143.53
40	0x4693f3a7	18937.826
41	0x477e50e1	65104.88
42	0x49130418	602177.5
43	0x47a6b788	85359.06
44	0x426d3941	59.305912
45	0x46f39383	31177.756
46	0x485551f3	218439.8
47	0x48fa9bc9	513246.28
48	0x42981fea	76.06233
49	0x46dbc087	28128.264
50	0x49a44f66	1.3460288e+06
51	0x48a7c21b	343568.84
52	0x466aeccb	15035.198
53	0x431cf382	156.9512
54	0x4736cfda	46799.85
55	0x47819675	66348.914
56	0x474d36d0	52534.812
57	0x46071fed	8647.981
58	0x48674901	236836.02
59	0x45b8c6df	5912.859
60	0x484a8668	207385.62
61	0x460182fe	8288.748
62	0x488ab5df	284078.97
63	0x45ab857a	5488.6846
64	0x4809d793	141150.3
65	0x460657aa	8597.916
66	0x49b0295a	1.4431152e+06
67	0x47887152	69858.64
68	0x48d122e7	428311.22
69	0x46a9e958	21748.672
70	0x4692019f	18688.81
71	0x49873c67	1.1078529e+06
72	0x475c5972	56409.445
73	0x487fc2ea	261899.66
74	0x464ef233	13244.55
75	0x48791d9c	255094.44
76	0x42bb9c11	93.80482
77	0x46371bb6	11718.928
78	0x4832900f	182848.23
79	0x4427c555	671.0833
80	0x4408c55a	547.0836
81	0x45c2dd0f	6235.6323
82	0x4882ff8e	268284.44
83	0x42ca128d	101.03623
84	0x473b3896	47928.586
85	0x470e34e6	36404.9
86	0x4671af3f	15467.812
87	0x4606fb97	8638.897
88	0x436df9de	237.97604
89	0x42cb264e	101.574814
90	0x489beb77	319323.72
91	0x47f3bdc4	124795.53
92	0x4858f156	222149.34
93	0x467fd4fc	16373.246
94	0x421c30ed	39.04778
95	0x485ff1ad	229318.7
96	0x4707cb08	34763.03
97	0x48e10a22	460881.06
98	0x48067576	137685.84
99	0x47c128a3	98897.27
100	0x487ac64e	256793.22
101	0x4856bd56	219893.34
102	0x430912e1	137.07375
103	0x46202b5a	10250.838
104	0x480ab2d8	142027.38
105	0x45ae19a2	5571.204
106	0x474bf18e	52209.555
107	0x42a00175	80.002846
108	0x42885d85	68.182655
109	0x48bb04da	383014.8
110	0x489eeda7	325485.22
111	0x46d2525b	26921.178
112	0x45a92952	5413.165
113	0x47d25a93	107701.15
114	0x4677b6e1	15853.72
115	0x484a4da5	207158.58
116	0x48496598	206230.38
117	0x438b9c47	279.22092
118	0x47215bc5	41307.77
119	0x488260e8	267015.25
120	0x488865e2	279343.06
121	0x4985d4fa	1.0963512e+06
122	0x46b04766	22563.7
123	0x4308870d	136.52754
124	0x46a54102	21152.504
125	0x46f2d2a8	31081.328
126	0x4524860e	2632.3784
127	0x45b8ccaa	5913.583

conv2.0.weight f4 [64, 128, 3, 3]
0	0xbead0cc9	-0.33798817
1	0xbed54666	-0.41655272
2	0xbe8187a3	-0.25298795
3	0xbed03209	-0.40663174
4	0xbef00a18	-0.468827
5	0xbe8ba45b	-0.2727383
6	0xbec6c7a5	-0.38824192
7	0xbed069cf	-0.40705726
8	0xbec36ba2	-0.38168055
9	0xbd3ac1f8	-0.04559514
10	0x3c593e25	0.013259445
11	0xbd5e608d	-0.054291297
12	0xbd2f0abf	-0.042734858
13	0xbd509fa2	-0.050933488
14	0x3d4cef8a	0.05003313
15	0xbd1856be	-0.0371921
16	0xbcfac736	-0.03061257
17	0xbc697c8e	-0.014250888
18	0xbf027c9c	-0.5097139
19	0xbf01f21c	-0.50760055
20	0xbebf2d96	-0.37339467
21	0xbeb7c9da	-0.35896188
22	0xbee30ab0	-0.4434409
23	0xbee3c1bc	-0.44483745
24	0xbeb3fe48	-0.3515494
25	0xbeacc8f5	-0.33747068
26	0xbe9e561d	-0.30925074
27	0x3e3d0598	0.18459165
28	0x3df8bff3	0.121459864
29	0x3e728b7a	0.23686019
30	0x3e5a9583	0.21346097
31	0x3e36e901	0.17862321
32	0x3e0ff315	0.14057572
33	0x3d8ba77f	0.06819057
34	0x3e7aaf48	0.24480927
35	0x3e61bdea	0.22045103
36	0xbd5c07a0	-0.05371821
37	0xbda346de	-0.07972501
38	0xbd6f75a5	-0.058461804
39	0x3d1b41be	0.037904494
40	0x3ddca8f7	0.10774415
41	0x3cba9d97	0.022780223
42	0xbcf72334	-0.030168153
43	0x3cf557fc	0.02994918
44	0xbcf9c13d	-0.030487651
45	0x3e4226cd	0.18960114
46	0x3e50f1a2	0.20404676
47	0x3d7ac208	0.0612202
48	0x3e5422d4	0.20716411
49	0x3e55ca7b	0.20878021
50	0x3e289814	0.16464263
51	0x3d90a8f7	0.070634775
52	0x3e33ffad	0.17578001
53	0x3d48fe3f	0.049070593
54	0xbf2f7108	-0.68531847
55	0xbf0ed1f5	-0.5578912
56	0xbef92f1e	-0.4866876
57	0xbee74c52	-0.45175415
58	0xbea30868	-0.3184235
59	0xbea7b26a	-0.32753307
60	0xbeed0064	-0.4628936
61	0xbead898a	-0.33893996
62	0xbea3c915	-0.3198935
63	0x3dcfc283	0.10144522
64	0x3b3a53ce	0.00284313
65	0xbbecef42	-0.00723067
66	0x3d8ddc23	0.06926753
67	0x3df100a0	0.11767697
68	0x3dbbbf62	0.09167363
69	0x3d2a0a08	0.041513473
70	0x3bde3c8f	0.0067821215
71	0x3e03ea95	0.12882455
72	0xbd648543	-0.05579115
73	0xbcfb602d	-0.030685509
74	0x3e116676	0.14199242
75	0xbe6a5614	-0.22884399
76	0xbde733cd	-0.11289177
77	0xbdeab481	-0.1146021
78	0xbe9de0ca	-0.30835563
79	0xbe80de4a	-0.25169593
80	0xbe682a1f	-0.22672318
81	0xbeb09c4c	-0.34494245
82	0xbe61f15b	-0.22064726
83	0xbdad614c	-0.084658235
84	0xbe899536	-0.2687165
85	0x3d37d9f9	0.04488561
86	0x3ebb536a	0.36587077
87	0xbeb7e0aa	-0.35913593
88	0xbd527be8	-0.051387697
89	0x3e4469e0	0.19181013
90	0xbc50f60f	-0.012753977
91	0x3dab1148	0.083529055
92	0xbcc90657	-0.024539156
93	0x3d8b7f57	0.068113975
94	0xbd2a053e	-0.041508906
95	0xbdbfb81d	-0.09361289
96	0xbd8a0c48	-0.06740624
97	0x3d16d24f	0.03682166
98	0x3d08a23f	0.033357855
99	0xbf0cc81a	-0.5499283
100	0xbf228f81	-0.6350022
101	0xbf11b739	-0.569202
102	0xbf1d6c3a	-0.61493266
103	0xbf248fe7	-0.6428208
104	0xbf1d9880	-0.6156082
105	0xbf236795	-0.6382993
106	0xbf19af5b	-0.60033196
107	0xbf2b3a6d	-0.66886026
108	0xbebe85d3	-0.37211475
109	0xbea13118	-0.31482768
110	0xbe6fcdd1	-0.23418356
111	0xbe9f9ee2	-0.31175905
112	0xbeaf3ca7	-0.34225962
113	0xbecbff94	-0.39843428
114	0xbef08e58	-0.469836
115	0xbea41ed8	-0.32054782
116	0xbea59a59	-0.3234432
117	0xbe14642d	-0.14491339
118	0xbe515534	-0.20442659
119	0xbe460d18	-0.19340932
120	0xbe7485f6	-0.23879227
121	0xbe816d24	-0.2527858
122	0xbe72c1e6	-0.23706779
123	0xbe1c6a25	-0.15274866
124	0xbe6ee40b	-0.23329179
125	0xbe90689d	-0.28204814
126	0xbf343595	-0.7039426
127	0xbf3c1cdb	-0.7348153
128	0xbf449ea3	-0.7680456
129	0xbf544da3	-0.82930964
130	0xbf35e56f	-0.7105321
131	0xbf266e31	-0.6501189
132	0xbf4a999c	-0.7914064
133	0xbf3a2e7b	-0.72727174
134	0xbf1ec681	-0.6202164
135	0xbf1a222e	-0.60208404
136	0xbf2e9602	-0.68197644
137	0xbf1947f0	-0.5987539
138	0xbf34b335	-0.7058595
139	0xbf3bce00	-0.73361206
140	0xbf2c1a83	-0.67227954
141	0xbf1b8e07	-0.6076359
142	0xbf456981	-0.7711411
143	0xbf2bb030	-0.67065716
144	0x3d2de026	0.042450093
145	0xbd1877d1	-0.03722364
146	0x3d54dddf	0.051969405
147	0xbbcc1b19	-0.006228816
148	0x3dcafc24	0.09911373
149	0xbbcc378e	-0.0062322086
150	0xbc96e132	-0.018417928
151	0x3d88e681	0.0668459
152	0xbd68201b	-0.056671243
153	0xbde7d216	-0.113193676
154	0xbd99cec2	-0.07510139
155	0xbdbb83f9	-0.09156031
156	0xbe361e54	-0.17785007
157	0xbe7154b7	-0.23567472
158	0xbe89718e	-0.26844448
159	0xbdae8005	-0.085205115
160	0xbdabad3b	-0.083826505
161	0xbe4dacf5	-0.20085509
162	0x3dd9b708	0.106306136
163	0xbc64c77d	-0.013963577
164	0x3db30cd2	0.0874268
165	0xbc65f635	-0.014035751
166	0xbcd30ae3	-0.025762027
167	0xbced5a14	-0.028973617
168	0xbcc8345a	-0.024439026
169	0xbc2d6b48	-0.01058466
170	0xbcb3d336	-0.0219513
171	0xbf030cbb	-0.511913
172	0xbeeea7a8	-0.46612287
173	0xbebd3619	-0.36955336
174	0xbf0c99b5	-0.5492204
175	0xbf1b36fb	-0.6063077
176	0xbed26b32	-0.4109741
177	0xbf0a3d68	-0.5399995
178	0xbf0ba383	-0.54546374
179	0xbec7f8e0	-0.39057064
180	0xbf13ac3a	-0.5768467
181	0xbf1c4411	-0.6104136
182	0xbf0795a6	-0.5296272
183	0xbf034f1a	-0.51292574
184	0xbf069baa	-0.52581275
185	0xbf0d9ed1	-0.5532046
186	0xbf23d7f2	-0.6400138
187	0xbf234259	-0.63773113
188	0xbefe2f27	-0.4964535
189	0xbf257b12	-0.64640915
190	0xbf22ffe7	-0.63671726
191	0xbf2d0c0f	-0.67596525
192	0xbf1df5f2	-0.6170341
193	0xbf10e972	-0.5660621
194	0xbf2c039a	-0.67192996
195	0xbf17e23f	-0.593296
196	0xbf0b5662	-0.54428685
197	0xbf085270	-0.5325079
198	0xbf13467b	-0.5752942
199	0xbf0e4ffb	-0.5559079
200	0xbef5bc74	-0.4799534
201	0xbef4a68e	-0.4778332
202	0xbf0a65a7	-0.5406136
203	0xbf09d7c5	-0.53844863
204	0xbf14d67b	-0.5813977
205	0xbef9bd26	-0.4877712
206	0xbf0f7aca	-0.56046736
207	0xbdd6c2e4	-0.10486391
208	0xbc0dc17b	-0.008652086
209	0xbdd3a1ef	-0.10333621
210	0xbd745d22	-0.05965913
211	0xbde1db18	-0.11028117
212	0xbd18de64	-0.037321463
213	0xbd32688f	-0.043556746
214	0x3cf0c860	0.029392421
215	0xbd134569	-0.035954867
216	0x3dde71d3	0.10861554
217	0x3ca2dce0	0.019880712
218	0x3dede569	0.11616022
219	0x3d0bc227	0.034120705
220	0x3c79a58b	0.015237222
221	0x3dd83c38	0.10558361
222	0x3dfcd7eb	0.123458706
223	0xbb9c64b2	-0.004772746
224	0x3da684f0	0.081308246
225	0x3c1500b0	0.009094402
226	0xbda4e17e	-0.08050822
227	0xbcecd463	-0.028909868
228	0xbdadc022	-0.08483912
229	0xbc59b91e	-0.013288764
230	0xbe0fe360	-0.1405158
231	0xbdb168da	-0.08662577
232	0xbd180342	-0.037112482
233	0xbda13689	-0.0787173
234	0xbf368405	-0.71295196
235	0xbf3dfd09	-0.74214226
236	0xbf365119	-0.71217495
237	0xbf49b3a7	-0.7878975
238	0xbf4a775d	-0.79088384
239	0xbf2ad4f2	-0.6673118
240	0xbf346481	-0.70465857
241	0xbf23c3bd	-0.6397055
242	0xbf30997c	-0.689842
243	0xbc38b59f	-0.011273771
244	0xbc90d779	-0.01768087
245	0xbcf0c731	-0.029391857
246	0xbd2fcb3e	-0.042918436
247	0xbbe48d19	-0.006974828
248	0x3d91b3d2	0.07114376
249	0xbd14a8b1	-0.03629369
250	0x3d32e3ea	0.043674387
251	0xbc485059	-0.012226188
252	0xbd271280	-0.040789127
253	0xbe196c81	-0.14982797
254	0xbe141095	-0.1445945
255	0xbe36dfe2	-0.17858842

conv2.0.bias f4 [64]
0	0xbf0062b3	-0.50150603
1	0x3d0866c4	0.03330113
2	0xbbeea852	-0.007283249
3	0xc1a4f046	-20.617321
4	0xc1a18ceb	-20.193808
5	0xc1a1ebb3	-20.240088
6	0x418bfdd8	17.498947
7	0xbe2a6a97	-0.16642223
8	0xc0836fb6	-4.1073866
9	0x3d4f413a	0.050599314
10	0x3da8be97	0.08239477
11	0xbfbaf63e	-1.4606397
12	0xbedee026	-0.43530387
13	0x3c426c67	0.011866665
14	0x3e04c84a	0.12967029
15	0x3d2d433b	0.042300444
16	0xbda0ef56	-0.0785815
17	0xc0629168	-3.540125
18	0xbe2b0fe3	-0.16705279
19	0xbd956c47	-0.07296043
20	0xbfb75d72	-1.4325392
21	0xc16004e2	-14.001192
22	0xbebea8f8	-0.37238288
23	0xbf3891ae	-0.7209729
24	0x3d12458d	0.03571086
25	0xc00a8894	-2.164586
26	0xbff63dda	-1.9237626
27	0xbf8884c8	-1.0665522
28	0x3d8c3fcf	0.06848108
29	0xc1a38f3b	-20.444937
30	0x3caf2109	0.021378057
31	0xc017cefd	-2.3720086
32	0x3cd95e4f	0.026534228
33	0xbdc3a9dd	-0.09553883
34	0xbda2bbec	-0.079459995
35	0xbd57c992	-0.052682467
36	0x3dfa3a75	0.12218181
37	0x3d62fab8	0.055414885
38	0xbdb9fa33	-0.09080925
39	0xbd450454	-0.04809983
40	0xbe4b9e20	-0.19884539
41	0xbefec797	-0.4976165
42	0xbda900df	-0.08252119
43	0xbc71123d	-0.014713821
44	0xbdd7b03b	-0.1053166
45	0xbc1fee42	-0.009761395
46	0x3d2aac83	0.041668426
47	0x3bff9555	0.007799784
48	0xc1f17bac	-30.185387
49	0xc0ef767c	-7.4832134
50	0x3d2fc3d9	0.042911384
51	0xbe35ddc2	-0.17760375
52	0xbc45f683	-0.012082699
53	0xbd51d7b4	-0.0512311
54	0x3c83dfb1	0.016097875
55	0x3d8c4bf8	0.068504274
56	0xbe9e0b9c	-0.30868232
57	0xbc9e46cb	-0.019320866
58	0xc19d83a2	-19.689274
59	0xc253174a	-52.772743
60	0x3d953d0b	0.07287034
61	0xc06ddd4d	-3.7166321
62	0x3d3bc502	0.04584218
63	0xbeca64d8	-0.39530063

conv2.1.weight f4 [64]
0	0x3e57139f	0.21003579
1	0x3f0afb30	0.5428953
2	0xbc3f9cbb	-0.011695082
3	0x3ed7ff16	0.42186803
4	0x3fa38183	1.2773899
5	0x3efd19f8	0.49433875
6	0xbf3d9f5c	-0.7407129
7	0xbc9025c9	-0.017596142
8	0x3e4d6ffa	0.20062247
9	0xbc1ea395	-0.009682556
10	0xbcc17203	-0.023613935
11	0x3e25d19a	0.16193238
12	0x3da413f0	0.08011615
13	0xbbb9c9a7	-0.005669791
14	0x3ba69945	0.005084189
15	0x3c24aabe	0.010050474
16	0xbc085e57	-0.008323274
17	0x3ecc8b8b	0.39950213
18	0x3f14e996	0.58168924
19	0xbc220a07	-0.009890086
20	0x3da44060	0.08020091
21	0x3f36f648	0.71469545
22	0x3e1abe64	0.15111691
23	0x3e1ded56	0.15422568
24	0xbd971c9a	-0.07378502
25	0x3e1634c8	0.14668572
26	0x3dad3889	0.08458049
27	0x3ca81548	0.02051796
28	0x3f2c4919	0.6729904
29	0x3f392b90	0.72332096
30	0xbbed64fb	-0.007244704
31	0x3e0b62fe	0.13611981
32	0x3d45c9d5	0.048288185
33	0xbc984d88	-0.018591657
34	0x3c56137d	0.01306617
35	0xbc30928e	-0.010777129
36	0x3cc51634	0.024058439
37	0xb9fa55c6	-0.00047747622
38	0xbcc6fe48	-0.024291173
39	0xbb3dc820	-0.0028958395
40	0xbdc2ed04	-0.095178634
41	0xbea029c0	-0.31281853
42	0x3ce9ff8a	0.028564233
43	0xb9e8e68f	-0.00044422268
44	0xb9690b84	-0.00022224901
45	0x3d534dc0	0.05158782
46	0xbcdb709b	-0.026787093
47	0xbd4498b8	-0.047997206
48	0x3fc39235	1.5278994
49	0x3e8502b0	0.25978613
50	0x39e39eb1	0.00043415048
51	0xbb8030c3	-0.003912063
52	0x3daa28e3	0.0830858
53	0xbddb37e6	-0.10704021
54	0xbc813c34	-0.015775777
55	0xbc1c0cdb	-0.009524549
56	0xbb4de5a0	-0.0031417385
57	0xbde45d56	-0.11150615
58	0x3f7754cb	0.9661376
59	0x3f88f01c	1.0698276
60	0xbb4c794b	-0.0031200226
61	0x3e99f358	0.3006847
62	0xbb86542f	-0.004099391
63	0x3dc3d1d4	0.09561506

conv2.1.bias f4 [64]
0	0xbebf2c1d	-0.37338343
1	0xbf1959f7	-0.599029
2	0xbd91ae77	-0.07113355
3	0x3e4fb22c	0.20282811
4	0x3e01622b	0.12635104
5	0x3e8ab4c4	0.27091038
6	0xbeb4ddac	-0.35325372
7	0xbf375776	-0.7161783
8	0xbef3214c	-0.4748634
9	0xbe66b152	-0.2252858
10	0xbda11504	-0.078653365
11	0xbf010c06	-0.5040897
12	0xbeb59dca	-0.35471946
13	0xbe1e3912	-0.15451458
14	0xbf2ebb77	-0.682548
15	0xbf183c8b	-0.5946738
16	0xbd0546ed	-0.032538343
17	0xbf3de250	-0.7417345
18	0xbf49eff9	-0.78881794
19	0xbf35f302	-0.71073925
20	0xbebb7325	-0.36611286
21	0x3eea1b69	0.45724037
22	0xbeb2e6de	-0.34941763
23	0xbecd7a31	-0.40132287
24	0xbedb0855	-0.42779794
25	0xbeb6a074	-0.3566929
26	0xbf301a99	-0.68790585
27	0xbeecfece	-0.4628815
28	0xbf0e22d9	-0.55521923
29	0xbd91c3fe	-0.07117461
30	0xbee1bff1	-0.44091752
31	0xbef7ea6c	-0.48421037
32	0xbec8fd4f	-0.3925576
33	0xbe25be11	-0.16185786
34	0xbeaba509	-0.3352435
35	0xbe0ce6d4	-0.13759929
36	0xbeaaff6a	-0.3339799
37	0xbdefb0a6	-0.11703615
38	0xbe4babe9	-0.19889797
39	0xbddb5eb1	-0.1071142
40	0xbf143132	-0.57887566
41	0xbf374bb7	-0.71599907
42	0xbe010ae0	-0.12601805
43	0xbc1fb5e8	-0.00974796
44	0xbe9685b9	-0.29398897
45	0xbe8edf4d	-0.2790474
46	0xbe552ec7	-0.20818625
47	0xbe213c8c	-0.15745753
48	0xbf2f9ebf	-0.686016
49	0xbf6d1d37	-0.92622703
50	0xbe57e310	-0.21082711
51	0xbe93feb6	-0.28905267
52	0xbf01bbbc	-0.50677085
53	0xbeb17efc	-0.34667194
54	0xbe2db3cd	-0.1696312
55	0xbd8fae4f	-0.070156686
56	0xbf129a87	-0.5726704
57	0xbf546a2e	-0.8297452
58	0x3cc3a60e	0.023882892
59	0xbf7a266b	-0.9771487
60	0xbdcfeedc	-0.10152981
61	0xbf204f12	-0.6262065
62	0xbefa433d	-0.48879424
63	0xbf0fcf3d	-0.56175596

conv2.1.running_mean f4 [64]
0	0xc3c83699	-400.42654
1	0xc3aa171c	-340.18054
2	0x4200b09d	32.172474
3	0xc53a6f2b	-2982.948
4	0xc4aec101	-1398.0314
5	0xc4af2d00	-1401.4062
6	0xc492e5cb	-1175.181
7	0x43211b26	161.10605
8	0x4350da62	208.85306
9	0x42792e28	62.295074
10	0x41fb0899	31.379198
11	0xc3d74e3c	-430.6112
12	0xc36ad65b	-234.83733
13	0x42a7f9da	83.98799
14	0x4282846e	65.25865
15	0xc2a6900b	-83.281334
16	0x4297abf4	75.835846
17	0x42c05a21	96.17603
18	0x43d4ba7e	425.45697
19	0x43220cf3	162.05058
20	0xc36a1a12	-234.10184
21	0x43a213e8	324.15552
22	0xc3e23981	-452.44925
23	0xc2e3afb7	-113.84319
24	0xc339c998	-185.78748
25	0xc40af0ab	-555.76044
26	0xc318bfd5	-152.74934
27	0xc25c85b5	-55.130573
28	0xc446a6e6	-794.6078
29	0xc4c864a2	-1603.1448
30	0x428803cc	68.007416
31	0xc23bfd04	-46.997086
32	0xc290fb66	-72.49101
33	0x42872d0e	67.588
34	0xc349ba40	-201.72754
35	0x42bfabad	95.835304
36	0xc2b1bbc2	-88.866714
37	0x429c0092	78.001114
38	0x4214efd5	37.23421
39	0x410038f0	8.013901
40	0xc3aeec60	-349.84668
41	0x43812276	258.26923
42	0xc2e8490c	-116.14267
43	0xc21998db	-38.399273
44	0x428a0bea	69.02327
45	0x4423dcb5	655.44855
46	0x42a38433	81.7582
47	0x4290a228	72.31671
48	0xc3a91228	-338.14185
49	0xc3514a83	-209.29106
50	0x42c32874	97.57901
51	0x4300153d	128.08296
52	0x440207d8	520.12256
53	0x425a5ae8	54.588776
54	0x4291a42a	72.82063
55	0x41dc211e	27.51617
56	0xc3f12c70	-482.34717
57	0x44012d34	516.7063
58	0xc3e4cf70	-457.6206
59	0x447838e0	992.8887
60	0x42b2bdf3	89.370995
61	0xc267566e	-57.834404
62	0x42d407ca	106.01521
63	0x4305bd51	133.73952

conv2.1.running_var f4 [64]
0	0x47c2f334	99814.41
1	0x4954297a	869015.6
2	0x449b5e6d	1242.9508
3	0x4a58331e	3.5422155e+06
4	0x49df1c6a	1.8277252e+06
5	0x49f095fb	1.9708794e+06
6	0x4a5d03d0	3.621108e+06
7	0x447b0682	1004.1017
8	0x48a6628f	340756.47
9	0x444cbc16	818.93884
10	0x444f242c	828.5652
11	0x4843cdfd	200503.95
12	0x4717c96c	38857.42
13	0x44503dbd	832.96466
14	0x48272dd5	171191.33
15	0x46aa93c7	21833.889
16	0x448be0fa	1119.0305
17	0x47f73f74	126590.91
18	0x48ba200c	381184.38
19	0x47b4005e	92160.734
20	0x471313a8	37651.656
21	0x4a2984b3	2.7773888e+06
22	0x474835cc	51253.797
23	0x47ce2467	105544.805
24	0x47aa40df	87169.74
25	0x47c4ffdf	100863.74
26	0x47cfa8fc	106321.97
27	0x48d6e4a0	440101.0
28	0x4a1b489b	2.5441668e+06
29	0x49b73f3a	1.5011592e+06
30	0x44069dd3	538.466
31	0x47817f13	66302.15
32	0x46f83ea8	31775.328
33	0x43df9990	447.1997
34	0x46ab7e7c	21951.242
35	0x44334088	717.0083
36	0x4636f8db	11710.214
37	0x441e33fa	632.81213
38	0x4477a030	990.5029
39	0x446385f9	910.0933
40	0x4811f739	149468.89
41	0x4892b6a5	300469.16
42	0x45433964	3123.587
43	0x450adee7	2221.9314
44	0x4458f0eb	867.76434
45	0x484916ba	205914.9
46	0x441728ae	604.6356
47	0x445477bd	849.8709
48	0x49c5a54a	1.6191132e+06
49	0x489d3d92	322028.56
50	0x4451853c	838.0818
51	0x4413bde3	590.967
52	0x4640eab8	12346.68
53	0x43cd0955	410.0729
54	0x44041823	528.37714
55	0x44b3c715	1438.2213
56	0x478d47d4	72335.66
57	0x46cec5fd	26466.994
58	0x49cb139d	1.6636036e+06
59	0x49edbcac	1.9475415e+06
60	0x43efaf4f	479.3696
61	0x4823a523	167572.55
62	0x445fbc71	894.9444
63	0x479ab295	79205.164

conv3.weight f4 [3, 64, 1, 1]
0	0x3e3bc791	0.18337847
1	0xbe6f810d	-0.23389073
2	0xbc30a70a	-0.010782013
3	0xbdabd967	-0.083910756
4	0xbe90abd0	-0.28256083
5	0xbed0e495	-0.40799394
6	0xbd91f055	-0.07125918
7	0xbd5b3a4a	-0.053522386
8	0xbecf1e0c	-0.4045261
9	0x3d34e870	0.044166982
10	0xbd0313d0	-0.032001317
11	0xbead44d8	-0.33841586
12	0xbe60b3fc	-0.21943659
13	0xbe20bab2	-0.15696219
14	0xbeb512b0	-0.3536582
15	0x3ed7023c	0.41993892
16	0x3dc22da7	0.09481364
17	0xbe8acab6	-0.2710778
18	0xbeff1bfc	-0.49826038
19	0x3e38dc2e	0.18052742
20	0x3e130b64	0.14359814
21	0xbf0aff23	-0.5429556
22	0xbe7d1331	-0.24714352
23	0x3d3b6399	0.04574928
24	0x3c988995	0.018620292
25	0xbd4ab596	-0.04948958
26	0x3d7e4fdb	0.062087875
27	0x3ec98e0a	0.3936618
28	0x3f1cbf48	0.6122937
29	0x3e0071cb	0.12543409
30	0x3d394831	0.045234863
31	0xbe32b7cf	-0.1745293
32	0xbee27104	-0.4422685
33	0xbd2038ba	-0.0391166
34	0xbc29af2c	-0.010356706
35	0xbdd43440	-0.103615284
36	0x3b9def82	0.0048198113
37	0xbe4f3242	-0.20234016
38	0xbdedf866	-0.11619644
39	0xbd9cedf4	-0.076625735
40	0x3e325330	0.17414546
41	0x3e9b26ef	0.3030314
42	0xbe4ca2c8	-0.19983971
43	0x3d14ef3b	0.03636096
44	0xbc65c741	-0.014024557
45	0xbe8a6375	-0.27029005
46	0xbdd32e56	-0.10311572
47	0xbdcfc0f4	-0.10144225
48	0x3f042475	0.5161813
49	0xbd61fc6b	-0.055172365
50	0xbe039b61	-0.12852241
51	0xbd0f501a	-0.0349885
52	0x3e290594	0.16506034
53	0x3c5e1bfc	0.013556477
54	0xbd3561b2	-0.044282623
55	0x3ded53ff	0.115882866
56	0x3d80ca9b	0.06288644
57	0x3e95a65a	0.2922848
58	0x3dcbfb47	0.09960037
59	0xbe821e64	-0.2541381
60	0x3dd36cb5	0.103234686
61	0xbe091f14	-0.13390762
62	0xbc8f9688	-0.017527834
63	0xbd77b95b	-0.060479503
64	0xbd230887	-0.039803054
65	0xbe9cbb9f	-0.30611894
66	0xbd804ed1	-0.06265033
67	0xbe8f85d4	-0.2803179
68	0xbe4f2a93	-0.20231085
69	0xbda31637	-0.079632215
70	0x3dd9f1e5	0.10641841
71	0x3b7a3e43	0.0038184084
72	0xbce7bb18	-0.028287455
73	0xbe12334c	-0.1427738
74	0xbe814d6b	-0.25254378
75	0x3e881863	0.26581106
76	0xbe9fee6b	-0.31236586
77	0x3da47778	0.08030599
78	0x3e333134	0.17499238
79	0xbac5e322	-0.0015097598
80	0xbe955742	-0.29168135
81	0xbe8d6e8b	-0.276234
82	0x3db948d4	0.09047094
83	0xbe4b8909	-0.19876494
84	0x3e3f2e5b	0.18670027
85	0xbee47e5d	-0.44627658
86	0xbe880455	-0.26565805
87	0x3d067e34	0.0328352
88	0x3d1c2c3d	0.038128126
89	0x3dd00542	0.10157253
90	0x3dd20588	0.10254961
91	0x3ee1cbbe	0.44100755
92	0x3e8800ea	0.26563197
93	0x3cc6849e	0.024233159
94	0xbd8ed379	-0.06973929
95	0x3eb40504	0.35160077
96	0xbba7f6d6	-0.0051258607
97	0xbcf5e04b	-0.030014178
98	0x3eae6929	0.34064606
99	0x3d1e00a7	0.03857484
100	0xbcc441b8	-0.023957118
101	0xbb1c38bf	-0.0023837534
102	0x3e6bd63e	0.23030946
103	0x3d8c1b1a	0.06841107
104	0xbe8410d1	-0.2579408
105	0x3e44e998	0.19229734
106	0x3dcc9b63	0.09990575
107	0x3d174505	0.036931057
108	0xbbfe27f8	-0.0077562295
109	0xbe474db8	-0.19463241
110	0x3d061d09	0.032742534
111	0xbde7c5ed	-0.11317048
112	0x3ee6ffa6	0.4511692
113	0x3d13ad01	0.03605366
114	0x3c5cc262	0.013474079
115	0xbdb040b0	-0.08606088
116	0xbe9d848e	-0.30765194
117	0xbd80129f	-0.06253552
118	0xbd44fa6b	-0.04809038
119	0xbda27992	-0.07933344
120	0x3ecf3011	0.4046636
121	0x3dc7c4a8	0.09754306
122	0x3df5cde2	0.1200216
123	0xbe64acda	-0.22331563
124	0x3b5b40e7	0.0033455433
125	0x3e4dca19	0.20096625
126	0xbc0282a1	-0.007965715
127	0xbcec283a	-0.028827775
128	0x3c7153ca	0.0147294495
129	0xbecf0ed8	-0.40441012
130	0xbe556dcb	-0.20842664
131	0xbdb30476	-0.08741085
132	0xbe22bfa2	-0.15893415
133	0x3c4235e3	0.011853668
134	0xbde41de0	-0.11138511
135	0xbd3f33f3	-0.046680402
136	0xbe09ee91	-0.13469912
137	0x3e18c52a	0.14918962
138	0xbe5e6b32	-0.2172058
139	0xbe5e464c	-0.21706504
140	0xbe6db4d5	-0.23213513
141	0xbb6c6ff3	-0.003607747
142	0x3e7b0490	0.24513459
143	0x3edfbb51	0.436976
144	0xbdc8e794	-0.09809795
145	0xbe946561	-0.28983596
146	0x3ebf546a	0.3736909
147	0xbe47cfe7	-0.19512902
148	0x3e070835	0.13186724
149	0xbecc8c48	-0.39950776
150	0xbe8bdf63	-0.27318868
151	0x3d834858	0.06410283
152	0xbe17fd1c	-0.14842647
153	0x3df58a41	0.119892605
154	0xbe3f1784	-0.18661314
155	0x3de03281	0.10947133
156	0x3ed8c1c8	0.42335343
157	0xbe03781b	-0.12838785
158	0xbe018898	-0.12649763
159	0x3e850ddc	0.25987136
160	0xbdcf8011	-0.101318486
161	0xbe5e1e51	-0.21691252
162	0x3d955eed	0.07293496
163	0xbb81cdd5	-0.0039613047
164	0xbe0d847a	-0.13820067
165	0x3e276a44	0.16349131
166	0xbe80dc89	-0.25168255
167	0x3e2c190b	0.16806428
168	0x3e2573e0	0.16157484
169	0x3eaacba6	0.33358496
170	0xbd84312c	-0.06454691
171	0xbc256751	-0.010095433
172	0xbe3851a6	-0.17999896
173	0x3e15a9a0	0.14615488
174	0x3e0ac4b9	0.13551606
175	0xbd98a416	-0.07453172
176	0x3eca4d6c	0.39512193
177	0xbc4813a2	-0.012211712
178	0x3de02cdf	0.109460585
179	0x3d823c03	0.063591026
180	0xbc7bec1d	-0.015376118
181	0x3cb14d07	0.021643175
182	0x3c8f6b22	0.01750714
183	0xbe2c79aa	-0.16843286
184	0x3e61d2dd	0.22053094
185	0x3de35d1e	0.11101745
186	0x3de5a032	0.112121955
187	0xbe9ed29e	-0.31020063
188	0x3e88b097	0.26697227
189	0x3e79a2b7	0.24378477
190	0xbbfbf8e3	-0.0076895817
191	0xbe3b38f2	-0.18283442

conv3.bias f4 [3]
0	0x3f0f3779	0.5594402
1	0x3ed3089b	0.41217503
2	0x3e9cba32	0.30610806
