report/results/5_gan/exp13/Mix_Training/checkpoints/albedo_gen_model.pkl (torch_old, 367713 bytes, 14 tensors)

conv1.0.weight f4 [128, 128, 1, 1]
00000000: 14f4 9bbc 6640 d03e a65c e6bf 9e15 ff3d
00000010: 801f 0f3f 1c91 f340 aebb adbf 7f33 823f
00000020: 8f3b da3f a237 ac40 c869 b23f 8f2c 4f3f
00000030: c9ae 14c0 89f4 ca40 3214 9abf f4f7 e1bf
00000040: 5671 323e 4b5f 493f defd 0f40 aea4 df3f
00000050: 1cf5 3cc0 e7b3 633f f3ba 8ec0 1c14 8440
00000060: 741f 04c1 9a06 283e 049c 1940 fb41 afc0
00000070: 0d18 e4bd d03a 823d a7a1 99c0 6e91 65c0
00000080: 2392 b340 aab9 9340 de12 11bf dbae 513e
00000090: 2c07 253e ce5b 2c3e 3be6 81bf d489 0ac0
000000a0: 69fc 883f 928b 2540 6622 ddbf 0446 933f
000000b0: 60ee 05c0 39ba 29bf 0bc5 f0bf 721e 533e
000000c0: ce45 85c0 4e13 07c0 b2d2 b640 996d 50bf
000000d0: dc16 68c0 f062 a5bd a142 e93f 37a5 603e
000000e0: ec45 043f fa85 9fbf fe89 773f 9417 0540
000000f0: 99b9 3f40 d957 6a40 d1b1 0bc1 46b3 0dbd
00000100: 225a 0fbe ab9e 423e 22a6 d2bf 176f 183e
00000110: 79a7 d53e c8e1 cc40 d1cf 28be f093 2a3e
00000120: 9c7a dd3f 4703 d1bf 43b3 89c0 265d 4f3e
00000130: 4f4a 7bc0 92b7 963f c058 e23e 8380 46bf
00000140: 0427 14bd 26ce 173f 043e 073f 2fe6 8f40
00000150: 0090 ca3e 5bdc 90be f4b9 78be eed5 fcbf
00000160: 3c92 39bf 9ea6 133f 213d 0f40 b5a7 c13f
00000170: 685c 42c0 d8f2 9f3f ffdf 953e 5e96 943f
00000180: 6ecb 6ac0 e294 cc3d 5c64 5fbf 883d d4be
00000190: 6d77 92c0 de19 8840 01cf a93f c6e6 3240
000001a0: a427 4f3f 4ea6 1640 f3d7 973e b671 b3bd
000001b0: 600e 74c0 c5fd 543e 4ba6 b3bf 7679 413e
000001c0: 7ba1 7fc0 80ba b63f fa9a 0a40 90a6 a240
000001d0: 07e1 9b3f d2ed 833f 794f e740 a44f 08be
000001e0: e820 c8bf 525b 3abf a11b ecbf 47a9 b9bf
000001f0: 2f5f 85bd 3ce1 933f 5b27 1dbe b821 86c0
00000200: dd32 db3a de29 ef3e 9c1e 71bd 37a5 2b3e
00000210: 90ec 50be b11d 773d 0cd1 2bbe 23b5 77be
00000220: 074f 8ebe 5f91 6bbe 0c14 87be 74dd f9bd
00000230: 0d59 d8be a6fa 7e3c 9561 e4bd 29c2 80bd
00000240: 64fe a7bd a963 8cbe 6487 a1be c437 c7bd
00000250: a539 ddbd ace5 81be 1726 2e3e af5c c53c
00000260: 6fa9 5dbe 77c0 08be c013 8e3e e011 d63c
00000270: 3ce5 0fbe 6fd8 8dbd b45e babe dccd 13bd
00000280: 3cc8 363e e697 833d b39f 25bc b15c 3a3e
00000290: 43cf 0c3e c002 80bd 2fbd 3b3d eab7 a53d
000002a0: 5867 8e3d 5003 b3be 8202 22be 791c 5b3b
000002b0: b4ae b2bd e4d1 8dbe 3c78 c4bd 7c0d 813d
000002c0: 9efd 0b3e 3580 43be 6c53 eebe ebc0 283e
000002d0: c9bc 903e 38e5 febd 52c2 95be 1b4a 093e
000002e0: 7352 173e a0d9 663e d036 0c3f 3df5 073f
000002f0: f3d1 1bbe 4992 58be cbd6 ba3e 29a1 c93c
00000300: 33d2 31be 61d0 843d e8ee 7ebe 0c98 a4be
00000310: 144b 84bd 7b07 763e 3b74 263d 45c5 263e
00000320: 3f1b 453e 61c5 8a3e 3e8a 69be e8b4 8b3d
00000330: 0439 fc3c a423 c5be a1c6 e4bc 7e6b 74be
00000340: 81aa 2c3b 2117 04be 1d2f 82be 52b8 a2be
00000350: 5177 bebe 6183 0dbe fafb adbe ecbe 4cbe
00000360: d197 29be bbc7 f9bc 96eb 153e e8e2 5ebe
00000370: 8b84 0ebf 9421 c0be 25fa 0cbf 5ae2 03bf
00000380: eb51 47be ce7f c9bd 199c 9cbe a84b b8bd
00000390: 3f46 1bbe 81ce f0be e1e7 e3be e8ae a13d
000003a0: 7412 85be 6c40 09be 85be b8be 75e9 9ebd
000003b0: afa9 edbe f520 cabd 1137 ef3e 78af 52bd
000003c0: a4a6 143e 38a2 b8bd 3c1c e83e 6c1d a9be
000003d0: 228a 23be bec0 f7bd 98c9 43be d016 84bd
000003e0: 9664 ab3b 035f 583e d4c1 093e 2258 94be
000003f0: 6c63 a53b e4c8 c03d 2102 e93d 228a 1e3e
-0.019037284 0.40674132 -1.7997024 0.12455295 0.5590744 7.6114635 -1.35729 1.0171965
1.7049426 5.381791 1.3938532 0.80927366 -2.323168 6.3423505 -1.2037413 -1.7653794
0.17426047 0.7866103 2.2498698 1.7472131 -2.9524603 0.88946384 -4.460321 4.1274548
-8.257679 0.16408768 2.4001474 -5.4768043 -0.111374 0.06358874 -4.800983 -3.5870013
5.611589 4.616414 -0.56669414 0.20476858 0.16116017 0.16831896 -1.0148386 -2.1646624
1.070203 2.5866437 -1.7276123 1.1505742 -2.0926743 -0.6629978 -1.8810133 0.20617083
-4.164771 -2.1105533 5.7132196 -0.8141723 -3.6263952 -0.080755115 1.8223459 0.21938024
0.5166919 -1.2462761 0.96694934 2.079564 2.995703 3.6616118 -8.730912 -0.034594797
-0.13999227 0.1900584 -1.645695 0.14886127 0.41729334 6.402561 -0.16485526 0.16657996
1.7303042 -1.6329125 -4.3031325 0.20250377 -3.9264104 1.1774771 0.44208336 -0.77539843
-0.03617002 0.5929893 0.52829003 4.4968486 0.39562988 -0.28293118 -0.24289685 -1.9752786
-0.7248876 0.5767611 2.238106 1.5129305 -3.03689 1.2495985 0.29272458 1.1608388
-3.6686664 0.09989335 -0.8726251 -0.41453195 -4.5770783 4.2531576 1.3266298 2.7953353
0.8091986 2.3539004 0.29656944 -0.08761923 -3.8133774 0.2079993 -1.4035124 0.1889399
-3.994231 1.4275665 2.165709 5.0828323 1.2178048 1.0306952 7.2284513 -0.1331163
-1.5635042 -0.72795594 -1.8445932 -1.4504784 -0.065122955 1.1553111 -0.15347044 -4.191616
0.0016723532 0.4671163 -0.058867082 0.16762243 -0.20402741 0.06033105 -0.16778964 -0.24190192
-0.27794668 -0.23004673 -0.26382482 -0.12200442 -0.4225544 0.015562689 -0.11151425 -0.06287033
-0.08202818 -0.27419785 -0.31548607 -0.09727433 -0.108020104 -0.25370538 0.17006718 0.024092047
-0.21646665 -0.1335467 0.27749443 0.02613157 -0.1405229 -0.06926047 -0.36400378 -0.036084995
0.17849821 0.06425457 -0.010108876 0.18199421 0.13750939 -0.062505245 0.045834716 0.080917194
0.06953305 -0.34963465 -0.15821269 0.003343372 -0.08724728 -0.27699196 -0.095932454 0.063014
0.13670966 -0.19091876 -0.4654802 0.16479842 0.28269032 -0.12446064 -0.29249817 0.13407175
0.14777546 0.22543955 0.5477114 0.5310858 -0.15216808 -0.21149553 0.36492 0.02461298
-0.17365341 0.064850576 -0.24895823 -0.32147253 -0.064596325 0.24026291 0.04063819 0.1628619
0.19248675 0.27103713 -0.22806641 0.068216145 0.030788906 -0.38503754 -0.027926745 -0.2386913
0.0026346745 -0.12899448 -0.2542657 -0.3178125 -0.37200406 -0.13819648 -0.33981305 -0.19994706
-0.1656182 -0.030490747 0.1464065 -0.21766245 -0.55670995 -0.37525618 -0.5506919 -0.5151726
-0.19464843 -0.0983883 -0.30587843 -0.08998805 -0.15163516 -0.4703255 -0.44512847 0.07894689
-0.2599064 -0.13403481 -0.36082855 -0.07759372 -0.4641852 -0.09869567 0.467217 -0.05143687
0.14516693 -0.09015316 0.4533404 -0.3303026 -0.15970662 -0.120973095 -0.1911987 -0.06449664
0.0052304966 0.21129994 0.13452846 -0.2897349 0.0050472524 0.09413317 0.11377359 0.15482381

conv1.0.bias f4 [128]
00000000: e13c be43 8cd9 b3bf 2a60 29c2 8036 55c3
00000010: 0212 19c1 4984 53c1 9b13 12c4 e6fc b03d
00000020: b71f b4c3 d10c 08c4 adf9 a5c1 ceef 80c2
00000030: d187 6fc2 2683 c8c1 1b49 75c3 9e7e 15c3
00000040: aabb 0ec3 fc2a 04c4 7941 f8c0 0219 16c1
00000050: 7c60 94c3 dc1b e8c1 5493 80c3 fd27 bf3c
00000060: cd60 83c3 4319 81c0 e086 94c3 ea11 78c1
00000070: 788c bbc0 fc85 2ac4 3d2e 2bc3 f9b4 17c1
00000080: 8197 27c1 18a6 85c3 4ba6 6cbd de2b 16c4
00000090: f2c9 94c1 db64 a2c3 d14e 02c0 5555 0bc2
000000a0: b2df 37c2 a302 14c3 4654 0bc3 381f a6c2
000000b0: 1ed5 eebf 1ccd 42c1 283d 8bc3 57a8 14c2
000000c0: 1792 c4c0 99f2 ecc3 4190 dec1 8e08 7cc3
000000d0: 3706 a8c2 bd61 703c 41bb c3c0 7247 edc1
000000e0: 71df b9c1 ce8c d8c3 760d e9c2 8237 98c1
000000f0: 234a 69c3 ef35 d1c1 109e 02c3 b854 90c1
00000100: d9bb a9c3 e68e dfc3 af57 fbc1 2f9b 30c3
00000110: 507a 69c2 115f 0544 e2af cfc3 ffd4 ffc1
00000120: 8565 46c2 a71a 4dc3 5217 ba3d cc26 47c3
00000130: a783 11c0 87fd 3cc1 ac56 5dc3 6968 d9c0
00000140: 62aa 13c1 b2d8 be3d a3bf a3c3 c026 53c0
00000150: 7596 26c0 2f66 8fc0 ebfe 513e d767 a53f
00000160: 9c35 0bc1 2d55 adbf 9cc9 c9c2 e098 9cc3
00000170: c5f8 69c2 fd5c 21c4 edfd efc0 c0b1 7bc3
00000180: d474 adc3 eaab 98c3 7466 42c3 d927 bac3
00000190: 9a6b f6c2 22f0 9fc3 78ab 50c1 732b b4bf
000001a0: b339 35c3 98ab 45c1 3eb0 f6c2 4193 0ec1
000001b0: 3ef8 6bc0 34d4 93c2 cfe7 1e43 eb7d 9ec1
000001c0: 3c83 01be 121b 0cc4 c8f7 91c3 c4db 02c3
000001d0: d6d9 83c3 9861 e3c0 abdf 1343 c16a 80c3
000001e0: d413 83c3 8c35 e2c1 4c2a acc2 dc89 a6c0
000001f0: b873 ecc1 8854 17c1 42e1 2dc0 0d77 70c1
380.47562 -1.4050765 -42.34391 -213.21289 -9.566896 -13.219796 -584.30634 0.086419865
-360.24777 -544.20026 -20.746912 -64.46837 -59.882633 -25.064037 -245.28557 -149.4946
-142.73306 -528.67163 -7.7579923 -9.381105 -296.75378 -29.013603 -257.151 0.023334498
-262.75626 -4.0343337 -297.0537 -15.504374 -5.860897 -682.0935 -171.18062 -9.481683
-10.474488 -267.2976 -0.057775777 -600.6854 -18.598606 -324.78793 -2.0360606 -34.833332
-45.968452 -148.0103 -139.3292 -83.060974 -1.8658788 -12.175076 -278.47778 -37.164394
-6.142833 -473.8953 -27.820436 -252.03342 -84.01214 0.01467174 -6.116608 -29.659885
-23.234102 -433.10004 -116.52629 -19.027103 -233.2896 -26.151335 -130.61743 -18.041367
-339.46756 -447.1164 -31.417814 -176.60619 -58.369446 533.4854 -415.37408 -31.979002
-49.59914 -205.10411 0.09086479 -199.15155 -2.2736604 -11.811896 -221.33856 -6.7939954
-9.229097 0.09318675 -327.49716 -3.29924 -2.6029332 -4.4812236 0.205074 1.2922314
-8.700588 -1.3541619 -100.89377 -313.19434 -58.49294 -645.45294 -7.499747 -251.69434
-346.91272 -305.34308 -194.4002 -372.3113 -123.21016 -319.87604 -13.0418625 -1.407576
-181.22539 -12.354393 -123.34422 -8.910951 -3.6870265 -73.91446 158.9055 -19.811483
-0.12647718 -560.423 -291.9358 -130.85846 -263.70184 -7.1056633 147.8737 -256.834
-262.1549 -28.276146 -86.08261 -5.2043285 -29.556503 -9.4581375 -2.7168736 -15.029065

conv1.1.weight f4 [128]
00000000: 1fe8 46c0 f461 4e3b cc0b 5ebe 3bea f03f
00000010: 4968 253d 1f29 843e 274c e740 dcd5 c0bb
00000020: e370 dd3f 90ef 8240 7610 b43d ca39 84bd
00000030: 9522 173b d4a6 863e b92d 293f a65a 1c40
00000040: d3e0 8a40 099c 7040 6a77 8a3e 4968 933a
00000050: b852 c23f 31cc 15ba 6e87 2540 a608 ff3b
00000060: cc86 8b40 e6ac dfbd 76da 7540 132e 263b
00000070: 35e0 4ebb 5655 9540 dfd6 733d 1447 95ba
00000080: e287 3c3e 3147 d03f 4a6f 1abb 2a72 4e40
00000090: f554 03bc 8578 8340 83b1 5bbd 0c69 90bb
000000a0: f2a5 95b9 d993 7b40 ea8a 9f3f 4781 553f
000000b0: dcdb d7bb 14e7 dd3c 8ef2 5540 88c3 0a3f
000000c0: 4bc4 833a 9c49 f43f 276a 4e3e 575b 6140
000000d0: b512 5c3d 1b99 2d3b b695 8e3e 9752 693e
000000e0: 2983 73bb c329 843f ec8d 363f fe27 9a3e
000000f0: efc1 1040 821e 9238 80cd 0f40 d1a6 b8bb
00000100: 53b3 7540 e4cf 5040 37c4 9a3e 7dd4 8740
00000110: 914b 6640 3068 a1c0 4867 0740 25ee b63e
00000120: 1816 66be 969a 0e40 999f 1abd 9fdd 1740
00000130: 429e 7eba a1cd a73d 1b51 f33f c0ae 37bc
00000140: a55c c5ba 5932 aa3d 240c 7240 9e37 95bb
00000150: 17f8 9cbe 53aa f4bb 288a bcbd c45c c3bd
00000160: d5f9 5ebb 83b6 5c39 5128 b63f 3fa9 2740
00000170: f7cb ad3f 43a8 9340 d5af 7e38 c92e 3a40
00000180: 4294 d53f 81db 8c40 2273 0140 bd58 1340
00000190: 96d8 6940 38df 8040 202a 2aba b7c9 4fbe
000001a0: e02a a43f c152 9cbe 2f78 e43f 4cf8 553b
000001b0: 5fff 45ba 7e0c bf3f 0ff4 51c0 8311 90bd
000001c0: ae50 2d3c 87ba b740 c2f9 a03f 19c1 7640
000001d0: 6c67 1f40 56af 20bb d82a f5bf 9162 4f40
000001e0: 12b0 7640 5168 043e 46bb 81be e522 4d3a
000001f0: 5618 323e 6b05 463d 47ed a5bc 551e a7bb
-3.1079175 0.003149149 -0.21684188 1.8821481 0.040382657 0.25812623 7.228046 -0.005884869
1.7300075 4.0917435 0.08792202 -0.06456335 0.0023061384 0.26299155 0.6608539 2.4430327
4.3399444 3.7595236 0.2704423 0.0011246289 1.5181494 -0.0005714326 2.586391 0.0077830134
4.3602047 -0.1092165 3.8414588 0.0025357052 -0.0031566743 4.666667 0.05953109 -0.0011388981
0.1841121 1.6271726 -0.0023564869 3.225718 -0.008015861 4.108462 -0.053636085 -0.004407054
-0.00028543134 3.930899 1.2464268 0.83400387 -0.0065874886 0.027087726 3.3429294 0.54204607
0.0010053007 1.9084964 0.20157681 3.5212 0.053728778 0.0026488963 0.27848595 0.22785412
-0.0037157035 1.0325245 0.71310306 0.30108637 2.2618368 6.967505e-05 2.2469177 -0.0056351204
3.83907 3.2626886 0.30227825 4.2446885 3.5983622 -5.043968 2.1156788 0.35728565
-0.22469366 2.2281852 -0.03774986 2.3729017 -0.00097129133 0.081935175 1.9009126 -0.011211097
-0.0015057517 0.08310384 3.781991 -0.004553749 -0.30658028 -0.0074665933 -0.09206039 -0.09539178
-0.0034023423 0.00021048826 1.4231054 2.619705 1.357787 4.6142898 6.0722075e-05 2.9091055
1.668587 4.401795 2.0226521 2.3022912 3.6538444 4.0272484 -0.00064912625 -0.20291792
1.2825584 -0.30531886 1.7849177 0.0032649217 -0.0007553007 1.4925687 -3.2805212 -0.0703459
0.010578318 5.7415195 1.257622 3.8555357 2.4906874 -0.002451857 -1.91537 3.240391
3.8544965 0.12930419 -0.2533819 0.0007825329 0.17392096 0.04834501 -0.020254744 -0.0051000514

conv1.1.bias f4 [128]
00000000: 50cb 0941 24b8 73be 92ab 27bf 36f7 8640
00000010: 171c 11be ee7f 51bf 2f17 c841 8d96 50bf
00000020: c867 ec40 03e5 ef41 4a8f 00bf 2238 1bbe
00000030: 19ae 2dbe a025 b740 04a2 163f cd4d 6d3f
00000040: 6fcb f6be d635 a041 f1e3 4ebf ba52 9fbe
00000050: 46b8 87bf 83c4 13be 5906 4cbf 7919 90bd
00000060: d244 fb3e c7f6 ebbe eabd 1dc0 4d49 42bd
00000070: 4229 e1bd ff91 93c0 a8ea f7bf 7390 8cbe
00000080: dc5c a2be 6e32 1e3e 3616 2dbd 4b16 3fc0
00000090: 0770 debd 03dc 86bf aa56 d6be 99b3 99bd
000000a0: b2ff a8be 1343 a53f 7706 b440 3af9 1841
000000b0: 4ff0 28bd 94e4 b9bd 82eb 0bc0 e5f4 2841
000000c0: 75fd f4bd 4e79 0e41 1806 fc40 5813 07c0
000000d0: 09fb a1bf f91f dbbd c5e0 f9be 21f3 b6bf
000000e0: 7fa4 14bf d18b 933f cf39 3b3f d29e 33bf
000000f0: 6ac2 23bf 7cb9 86be d4f1 763f f167 49be
00000100: 8814 8dbf 4c6f 41c0 531e 0d41 c1ce 10c0
00000110: 8224 2540 3c27 0342 01a3 bcbf f8d8 2341
00000120: f8a2 27bf 70d1 edbf 49fa 41bd 21e4 f7bf
00000130: f4e2 f1bc 182d 2bbf 95ad 0d41 84cf b6bd
00000140: b118 c3be 9660 37bf b5de bdbf b682 11bd
00000150: c73e 7dbf 79f6 dfbc 4179 37be e98a 9dbe
00000160: 0521 29bd afc0 a3bd 7f5d 4640 03fc d83e
00000170: 2a50 ee3f e37f 7dc0 d6fc a9bd 0c71 0cc0
00000180: 883c 25be d21d 4abf f246 54bf 100f 9740
00000190: 06e6 1040 660b 643d 8a51 bfbd bb9b 9cbe
000001a0: 0ec3 cbbc 6de2 7bbf ffaa 2a40 bfac 68be
000001b0: e22f 93bd dc61 7440 71ff 813f de65 8bbf
000001c0: 0e1e 98be 0619 2cc0 9cfa 113f 8b81 7a40
000001d0: fb57 01bf 86ea c2bd 235e b940 4f22 81bf
000001e0: c4eb 283f 1735 5b40 4ce9 cabf db22 aebd
000001f0: b510 36bf 02db 28be 42a2 02be d245 5ebd
8.612137 -0.23800713 -0.6549617 4.217677 -0.14170872 -0.8183583 25.01132 -0.8147972
7.3876686 29.986822 -0.5021864 -0.15158132 -0.16960944 5.723343 0.58840966 0.9269684
-0.48202083 20.026287 -0.8081656 -0.31117803 -1.0603111 -0.14430432 -0.79697186 -0.070361085
0.49075943 -0.46086714 -2.4647164 -0.047433186 -0.109941974 -4.611572 -1.9368486 -0.27453956
-0.3171147 0.15448925 -0.04225751 -2.9857357 -0.10861211 -1.0535892 -0.41862994 -0.07504959
-0.3300758 1.2911094 5.625789 9.560846 -0.0412448 -0.09076801 -2.1862493 10.559789
-0.119624056 8.904615 7.875744 -2.1105556 -1.2654735 -0.10699458 -0.48804298 -1.4292947
-0.580635 1.1527044 0.73135084 -0.70164216 -0.6396853 -0.26313388 0.9646275 -0.19668557
-1.1021891 -3.022418 8.819903 -2.2626193 2.5803533 32.788315 -1.4737245 10.240471
-0.65483046 -1.857954 -0.04735783 -1.9366494 -0.029527165 -0.6686568 8.854878 -0.08926299
-0.38104776 -0.71631753 -1.483359 -0.035525046 -0.98923916 -0.027339207 -0.17917348 -0.30770043
-0.041291256 -0.07995736 3.0994565 0.4237977 1.8618214 -3.9609306 -0.08300178 -2.1943998
-0.16136372 -0.7895175 -0.82920754 4.7205887 2.2640395 0.055674933 -0.09341724 -0.30587563
-0.024873283 -0.98392373 2.6666868 -0.22722147 -0.07186867 3.8184729 1.015608 -1.0890462
-0.2971043 -2.6890273 0.57023025 3.9141567 -0.5052487 -0.09517388 5.7927413 -1.0088595
0.6598475 3.4251153 -1.5852447 -0.08502742 -0.7111924 -0.16489795 -0.12757209 -0.054265805

conv1.1.running_mean f4 [128]
00000000: bca6 9543 0424 bb41 fedd d842 e040 bbc3
00000010: e223 9fc0 064a 58c1 9c57 df42 6369 5f42
00000020: e5ac e8c3 843e 3843 cfc5 3dc3 0a2a 8442
00000030: 3d28 1ec3 03c1 ecc1 adae b542 808c 4dc3
00000040: 84ac 99c3 21cc 2bc4 5461 b4c1 ab14 07c1
00000050: 0006 07c4 b3c4 9442 1d4e bbc3 fb73 8cc1
00000060: b843 cbc3 fce7 0942 64d1 9742 bb5b f140
00000070: 8f8f a3c2 6176 41c4 a4ce 12c4 782b 8e41
00000080: 1d39 2b3f b37f 78c2 a154 e741 afe5 5dc4
00000090: 4490 ef40 8eb2 fac3 2e66 e4c1 72c6 8442
000000a0: 785c c141 ba7a 1b42 4248 a443 cbf6 0143
000000b0: 97a7 fec1 146d be41 604d 2dc3 83f5 0a43
000000c0: a399 7941 fdcc 4143 e1f7 8340 383d c042
000000d0: 9a0d 82c3 344e d6c1 147d 96c2 53cc e8c2
000000e0: 731d 54c2 b078 8fc1 a26e 3fc1 b665 93c2
000000f0: d196 f9c1 318d 6942 90e4 94c3 01f2 9f42
00000100: e0c1 0e43 1fb4 a1c3 3e6c b9c2 8517 69c3
00000110: 03e7 b842 a974 6a41 469c 61c3 e9da 59c3
00000120: f1c6 3e41 a827 69c2 a999 2f42 b65b 5a43
00000130: 356b 38c2 8440 6241 5b92 1b42 8094 8f3e
00000140: 0836 0642 a658 9fc1 32e1 db42 441b b9c1
00000150: 0948 e541 6864 3442 7619 5042 947d 8742
00000160: 4491 c141 84b0 65c2 66cc 98c2 b42e 96c3
00000170: ce61 d5c0 de5a c8c3 f809 9c41 c115 15c3
00000180: 7a6e b3c2 7932 0ec3 7503 ba41 b21c ecc3
00000190: e9a1 b8c3 1065 ebc3 6819 9b41 8a97 8c41
000001a0: b903 1bc3 0253 7842 4a1d 19c3 2c62 7fc2
000001b0: 3210 03c2 2159 bb42 e356 1944 4741 b742
000001c0: fcf9 ad3e 27a8 09c4 e09d 3a43 7e6f c0c3
000001d0: f530 b9c1 caf0 31c1 83bb 9a43 5d4f 1743
000001e0: 750a a7c3 2efa 85c2 4c2d 4ac3 b74f b040
000001f0: ee91 36c3 d7bf 9cc1 f1d7 1f42 7278 1442
299.3026 23.392586 108.43358 -374.50684 -4.97313 -13.518072 111.67111 55.852917
-465.35074 184.2442 -189.77269 66.08211 -158.15718 -29.594244 90.84116 -205.54883
-307.34778 -687.1895 -22.547523 -8.442546 -540.09375 74.38418 -374.61026 -17.556631
-406.52905 34.476547 75.908966 7.5424476 -81.78039 -773.8497 -587.22876 17.771225
0.6688402 -62.124706 28.916323 -887.5888 7.4863605 -501.39496 -28.549892 66.38759
24.17015 38.86985 328.5645 129.96404 -31.831831 23.80326 -173.30225 138.95903
15.600009 193.80074 4.1240087 96.11957 -260.10626 -26.788185 -75.24429 -116.39907
-53.02876 -17.93393 -11.96451 -73.698654 -31.19864 58.387882 -297.78564 79.972664
142.75732 -323.4072 -92.71141 -233.09187 92.451195 14.6534815 -225.61044 -217.85512
11.92357 -58.288727 43.90006 218.35825 -46.104694 14.140751 38.892925 0.28042984
33.552765 -19.918285 109.939835 -23.138313 28.660173 45.098053 52.024864 67.74527
24.19593 -57.42238 -76.399216 -300.36487 -6.668189 -400.7099 19.504868 -149.08498
-89.715775 -142.19716 23.251688 -472.22418 -369.26492 -470.78955 19.387405 17.573994
-155.01454 62.081062 -153.11441 -63.84587 -32.765816 93.67408 613.3576 91.627495
0.33979785 -550.6274 186.6167 -384.87103 -23.148905 -11.121286 309.46494 151.31001
-334.0817 -66.98863 -202.17694 5.509731 -182.57004 -19.593672 39.96088 37.117622

conv1.1.running_var f4 [128]
00000000: 69ae 3746 919f 8644 2fea e847 07d1 3d48
00000010: 227c 1246 942a 2647 4250 1747 94bd 0f45
00000020: 6c5e 7146 7053 ae46 be44 bb44 6aec bf48
00000030: c8ac a845 8c0c 8349 5df7 c246 0bf2 b447
00000040: a0f0 4d47 a532 cf46 5442 d545 61c6 5146
00000050: c81b 8c46 8af0 0746 1ac2 9a47 f29f c042
00000060: 6654 d247 74c4 ef44 a852 a747 9295 1146
00000070: 8671 8842 8e41 9e46 8f51 8847 c844 8944
00000080: a033 8b47 82df cf46 f391 3343 8422 e245
00000090: 3b71 fe46 75d3 d147 1229 0745 e816 2947
000000a0: b4ac 3046 f482 9f47 3f3e bb48 5794 4b47
000000b0: 9e84 3e42 d746 8946 505f a947 7c5f b148
000000c0: 5002 7142 0321 e146 168f 5a49 7f0f fd47
000000d0: f137 c446 61b1 0043 6c25 be46 f69d ef46
000000e0: 67cd df46 96a4 1546 7b0a bf47 71d7 1545
000000f0: 2e40 ba47 dadc 9545 c5b0 1f48 6bc4 4b45
00000100: 3956 9147 c573 2e46 9ea6 6649 35e8 0e47
00000110: 00fa 6948 af0b ed46 d5d3 bb46 02bc 2c49
00000120: 88fe f646 5b07 ba47 cbb6 e745 a4fa ce47
00000130: 62db 5b42 6801 bc45 8077 d447 d6de c243
00000140: 1127 a843 7935 5345 aeae 0548 4a07 7842
00000150: bd9a cd46 5c09 9646 3811 df45 118f 7e45
00000160: 762d 0543 f46f 8942 6a81 2548 e5cb 8a47
00000170: 825d 1548 105e 7b46 0f89 5042 910f a947
00000180: f20b 4647 2e8d 6348 81bd a447 6186 9447
00000190: 00aa e447 bb1a 4747 64ff fb42 abaa 8445
000001a0: e80b 9c47 20ae 6345 9af2 2c47 73fe 9142
000001b0: 8d8a 4942 19de 4948 d25f 3848 9669 5546
000001c0: 4f36 2545 12b7 9547 168c 4e46 c76a 9c47
000001d0: 157b c747 29f9 1c43 9fc7 0947 9dea e447
000001e0: 38c6 3448 0a0b 3549 dae9 f446 e223 c142
000001f0: 74a4 1946 f22e 8646 e964 b944 2172 3d45
11755.603 1076.9865 119252.37 194372.11 9375.033 42538.58 38736.258 2299.8486
15447.605 22313.719 1498.1482 393059.3 5397.5977 1.0735535e+06 24955.682 92644.086
52720.625 26521.322 6824.291 13425.595 17933.89 8700.135 79236.2 96.31239
107688.8 1918.1392 85669.31 9317.393 68.221725 20256.777 69795.12 1098.1494
71271.25 26607.754 179.57011 7236.3145 32568.615 107430.914 2162.567 43286.906
11307.176 81669.91 383473.97 52116.34 47.62951 17571.42 86718.625 363259.88
60.25226 28816.506 895217.4 129566.99 25115.97 128.69289 24338.71 30670.98
28646.701 9577.146 97812.96 2397.465 95360.36 4795.6064 163523.08 3260.2761
74412.445 11164.942 944745.9 36584.207 239592.0 30341.842 24041.916 707520.1
31615.266 95246.71 7414.849 105973.28 54.96424 6016.176 108783.0 389.7409
336.3052 3379.342 136890.72 62.00712 26317.37 19204.68 7138.1523 4072.9417
133.17758 68.71866 169477.66 71063.79 152950.03 16087.516 52.133846 86559.13
50699.945 233012.72 84347.01 76044.76 117076.0 50970.73 125.99881 4245.3335
79895.81 3642.8828 44274.6 72.99697 50.385303 206712.39 188799.28 13658.396
2643.3943 76654.14 13219.021 80085.555 102134.164 156.97328 35271.62 117205.23
185112.88 741552.6 31348.926 96.57008 9833.113 17175.473 1483.1534 3031.133

conv2.0.weight f4 [64, 128, 3, 3]
00000000: c90c adbe 6646 d5be a387 81be 0932 d0be
00000010: 180a f0be 5ba4 8bbe a5c7 c6be cf69 d0be
00000020: a26b c3be f8c1 3abd 253e 593c 8d60 5ebd
00000030: bf0a 2fbd a29f 50bd 8aef 4c3d be56 18bd
00000040: 36c7 fabc 8e7c 69bc 9c7c 02bf 1cf2 01bf
00000050: 962d bfbe dac9 b7be b00a e3be bcc1 e3be
00000060: 48fe b3be f5c8 acbe 1d56 9ebe 9805 3d3e
00000070: f3bf f83d 7a8b 723e 8395 5a3e 01e9 363e
00000080: 15f3 0f3e 7fa7 8b3d 48af 7a3e eabd 613e
00000090: a007 5cbd de46 a3bd a575 6fbd be41 1b3d
000000a0: f7a8 dc3d 979d ba3c 3423 f7bc fc57 f53c
000000b0: 3dc1 f9bc cd26 423e a2f1 503e 08c2 7a3d
000000c0: d422 543e 7bca 553e 1498 283e f7a8 903d
000000d0: adff 333e 3ffe 483d 0871 2fbf f5d1 0ebf
000000e0: 1e2f f9be 524c e7be 6808 a3be 6ab2 a7be
000000f0: 6400 edbe 8a89 adbe 15c9 a3be 83c2 cf3d
00000100: ce53 3a3b 42ef ecbb 23dc 8d3d a000 f13d
00000110: 62bf bb3d 080a 2a3d 8f3c de3b 95ea 033e
00000120: 4385 64bd 2d60 fbbc 7666 113e 1456 6abe
00000130: cd33 e7bd 81b4 eabd cae0 9dbe 4ade 80be
00000140: 1f2a 68be 4c9c b0be 5bf1 61be 4c61 adbd
00000150: 3695 89be f9d9 373d 6a53 bb3e aae0 b7be
00000160: e87b 52bd e069 443e 0ff6 50bc 4811 ab3d
00000170: 5706 c9bc 577f 8b3d 3e05 2abd 1db8 bfbd
00000180: 480c 8abd 4fd2 163d 3fa2 083d 1ac8 0cbf
00000190: 818f 22bf 39b7 11bf 3a6c 1dbf e78f 24bf
000001a0: 8098 1dbf 9567 23bf 5baf 19bf 6d3a 2bbf
000001b0: d385 bebe 1831 a1be d1cd 6fbe e29e 9fbe
000001c0: a73c afbe 94ff cbbe 588e f0be d81e a4be
000001d0: 599a a5be 2d64 14be 3455 51be 180d 46be
000001e0: f685 74be 246d 81be e6c1 72be 256a 1cbe
000001f0: 0be4 6ebe 9d68 90be 9535 34bf db1c 3cbf
00000200: a39e 44bf a34d 54bf 6fe5 35bf 316e 26bf
00000210: 9c99 4abf 7b2e 3abf 81c6 1ebf 2e22 1abf
00000220: 0296 2ebf f047 19bf 35b3 34bf 00ce 3bbf
00000230: 831a 2cbf 078e 1bbf 8169 45bf 30b0 2bbf
00000240: 26e0 2d3d d177 18bd dfdd 543d 191b ccbb
00000250: 24fc ca3d 8e37 ccbb 32e1 96bc 81e6 883d
00000260: 1b20 68bd 16d2 e7bd c2ce 99bd f983 bbbd
00000270: 541e 36be b754 71be 8e71 89be 0580 aebd
00000280: 3bad abbd f5ac 4dbe 08b7 d93d 7dc7 64bc
00000290: d20c b33d 35f6 65bc e30a d3bc 145a edbc
000002a0: 5a34 c8bc 486b 2dbc 36d3 b3bc bb0c 03bf
000002b0: a8a7 eebe 1936 bdbe b599 0cbf fb36 1bbf
000002c0: 326b d2be 683d 0abf 83a3 0bbf e0f8 c7be
000002d0: 3aac 13bf 1144 1cbf a695 07bf 1a4f 03bf
000002e0: aa9b 06bf d19e 0dbf f2d7 23bf 5942 23bf
000002f0: 272f febe 127b 25bf e7ff 22bf 0f0c 2dbf
00000300: f2f5 1dbf 72e9 10bf 9a03 2cbf 3fe2 17bf
00000310: 6256 0bbf 7052 08bf 7b46 13bf fb4f 0ebf
00000320: 74bc f5be 8ea6 f4be a765 0abf c5d7 09bf
00000330: 7bd6 14bf 26bd f9be ca7a 0fbf e4c2 d6bd
00000340: 7bc1 0dbc efa1 d3bd 225d 74bd 18db e1bd
00000350: 64de 18bd 8f68 32bd 60c8 f03c 6945 13bd
00000360: d371 de3d e0dc a23c 69e5 ed3d 27c2 0b3d
00000370: 8ba5 793c 383c d83d ebd7 fc3d b264 9cbb
00000380: f084 a63d b000 153c 7ee1 a4bd 63d4 ecbc
00000390: 22c0 adbd 1eb9 59bc 60e3 0fbe da68 b1bd
000003a0: 4203 18bd 8936 a1bd 0584 36bf 09fd 3dbf
000003b0: 1951 36bf a7b3 49bf 5d77 4abf f2d4 2abf
000003c0: 8164 34bf bdc3 23bf 7c99 30bf 9fb5 38bc
000003d0: 79d7 90bc 31c7 f0bc 3ecb 2fbd 198d e4bb
000003e0: d2b3 913d b1a8 14bd eae3 323d 5950 48bc
000003f0: 8012 27bd 816c 19be 9510 14be e2df 36be
-0.33798817 -0.41655272 -0.25298795 -0.40663174 -0.468827 -0.2727383 -0.38824192 -0.40705726
-0.38168055 -0.04559514 0.013259445 -0.054291297 -0.042734858 -0.050933488 0.05003313 -0.0371921
-0.03061257 -0.014250888 -0.5097139 -0.50760055 -0.37339467 -0.35896188 -0.4434409 -0.44483745
-0.3515494 -0.33747068 -0.30925074 0.18459165 0.121459864 0.23686019 0.21346097 0.17862321
0.14057572 0.06819057 0.24480927 0.22045103 -0.05371821 -0.07972501 -0.058461804 0.037904494
0.10774415 0.022780223 -0.030168153 0.02994918 -0.030487651 0.18960114 0.20404676 0.0612202
0.20716411 0.20878021 0.16464263 0.070634775 0.17578001 0.049070593 -0.68531847 -0.5578912
-0.4866876 -0.45175415 -0.3184235 -0.32753307 -0.4628936 -0.33893996 -0.3198935 0.10144522
0.00284313 -0.00723067 0.06926753 0.11767697 0.09167363 0.041513473 0.0067821215 0.12882455
-0.05579115 -0.030685509 0.14199242 -0.22884399 -0.11289177 -0.1146021 -0.30835563 -0.25169593
-0.22672318 -0.34494245 -0.22064726 -0.084658235 -0.2687165 0.04488561 0.36587077 -0.35913593
-0.051387697 0.19181013 -0.012753977 0.083529055 -0.024539156 0.068113975 -0.041508906 -0.09361289
-0.06740624 0.03682166 0.033357855 -0.5499283 -0.6350022 -0.569202 -0.61493266 -0.6428208
-0.6156082 -0.6382993 -0.60033196 -0.66886026 -0.37211475 -0.31482768 -0.23418356 -0.31175905
-0.34225962 -0.39843428 -0.469836 -0.32054782 -0.3234432 -0.14491339 -0.20442659 -0.19340932
-0.23879227 -0.2527858 -0.23706779 -0.15274866 -0.23329179 -0.28204814 -0.7039426 -0.7348153
-0.7680456 -0.82930964 -0.7105321 -0.6501189 -0.7914064 -0.72727174 -0.6202164 -0.60208404
-0.68197644 -0.5987539 -0.7058595 -0.73361206 -0.67227954 -0.6076359 -0.7711411 -0.67065716
0.042450093 -0.03722364 0.051969405 -0.006228816 0.09911373 -0.0062322086 -0.018417928 0.0668459
-0.056671243 -0.113193676 -0.07510139 -0.09156031 -0.17785007 -0.23567472 -0.26844448 -0.085205115
-0.083826505 -0.20085509 0.106306136 -0.013963577 0.0874268 -0.014035751 -0.025762027 -0.028973617
-0.024439026 -0.01058466 -0.0219513 -0.511913 -0.46612287 -0.36955336 -0.5492204 -0.6063077
-0.4109741 -0.5399995 -0.54546374 -0.39057064 -0.5768467 -0.6104136 -0.5296272 -0.51292574
-0.52581275 -0.5532046 -0.6400138 -0.63773113 -0.4964535 -0.64640915 -0.63671726 -0.67596525
-0.6170341 -0.5660621 -0.67192996 -0.593296 -0.54428685 -0.5325079 -0.5752942 -0.5559079
-0.4799534 -0.4778332 -0.5406136 -0.53844863 -0.5813977 -0.4877712 -0.56046736 -0.10486391
-0.008652086 -0.10333621 -0.05965913 -0.11028117 -0.037321463 -0.043556746 0.029392421 -0.035954867
0.10861554 0.019880712 0.11616022 0.034120705 0.015237222 0.10558361 0.123458706 -0.004772746
0.081308246 0.009094402 -0.08050822 -0.028909868 -0.08483912 -0.013288764 -0.1405158 -0.08662577
-0.037112482 -0.0787173 -0.71295196 -0.74214226 -0.71217495 -0.7878975 -0.79088384 -0.6673118
-0.70465857 -0.6397055 -0.689842 -0.011273771 -0.01768087 -0.029391857 -0.042918436 -0.006974828
0.07114376 -0.03629369 0.043674387 -0.012226188 -0.040789127 -0.14982797 -0.1445945 -0.17858842

conv2.0.bias f4 [64]
00000000: b362 00bf b766 083d 52a8 eebb 46f0 a4c1
00000010: eb8c a1c1 b3eb a1c1 d8fd 8b41 976a 2abe
00000020: b66f 83c0 3a41 4f3d 97be a83d 3ef6 babf
00000030: 26e0 debe 676c 423c 4ac8 043e 3b43 2d3d
00000040: 56ef a0bd 6891 62c0 e30f 2bbe 476c 95bd
00000050: 725d b7bf e204 60c1 f8a8 bebe ae91 38bf
00000060: 8d45 123d 9488 0ac0 da3d f6bf c884 88bf
00000070: cf3f 8c3d 3b8f a3c1 0921 af3c fdce 17c0
00000080: 4f5e d93c dda9 c3bd ecbb a2bd 92c9 57bd
00000090: 753a fa3d b8fa 623d 33fa b9bd 5404 45bd
000000a0: 209e 4bbe 97c7 febe df00 a9bd 3d12 71bc
000000b0: 3bb0 d7bd 42ee 1fbc 83ac 2a3d 5595 ff3b
000000c0: ac7b f1c1 7c76 efc0 d9c3 2f3d c2dd 35be
000000d0: 83f6 45bc b4d7 51bd b1df 833c f84b 8c3d
000000e0: 9c0b 9ebe cb46 9ebc a283 9dc1 4a17 53c2
000000f0: 0b3d 953d 4ddd 6dc0 02c5 3b3d d864 cabe
-0.50150603 0.03330108 -0.007283249 -20.617321 -20.193808 -20.240088 17.498947 -0.16642223
-4.1073866 0.050599314 0.08239477 -1.4606397 -0.43530387 0.011866665 0.12967029 0.042300444
-0.0785815 -3.540125 -0.16705279 -0.07296043 -1.4325392 -14.001192 -0.37238288 -0.7209729
0.03571086 -2.164586 -1.9237626 -1.0665522 0.06848108 -20.444937 0.021378057 -2.3720086
0.026534228 -0.09553883 -0.079459995 -0.052682467 0.12218181 0.055414885 -0.09080925 -0.04809983
-0.19884539 -0.4976165 -0.08252119 -0.014713821 -0.1053166 -0.009761395 0.041668426 0.007799784
-30.185387 -7.4832134 0.042911384 -0.17760375 -0.012082699 -0.0512311 0.016097875 0.068504274
-0.30868232 -0.019320866 -19.689274 -52.772743 0.07287034 -3.7166321 0.04584218 -0.39530063

conv2.1.weight f4 [64]
00000000: 9f13 573e 0e49 0c3f bb9c 3fbc 7de8 0a3f
00000010: d737 a73f 8b4d 413f ee07 35bf c925 90bc
00000020: fa6f 4d3e 95a3 1ebc 0372 c1bc 9ad1 253e
00000030: f013 a43d a7c9 b9bb 4599 a63b beaa 243c
00000040: 575e 08bc 8b8b cc3e 96e9 143f 070a 22bc
00000050: 6040 a43d 7556 a93f 64be 1a3e 56ed 1d3e
00000060: 9a1c 97bd c834 163e 8938 ad3d 4815 a83c
00000070: f9f9 393f 8d11 503f fb64 edbb fe62 0b3e
00000080: d5c9 453d 884d 98bc 7d13 563c 8e92 30bc
00000090: 3416 c53c c655 fab9 48fe c6bc 20c8 3dbb
000000a0: 04ed c2bd c029 a0be 8aff e93c 8fe6 e8b9
000000b0: 840b 69b9 c04d 533d 9b70 dbbc b898 44bd
000000c0: ea71 c43f b002 853e b19e e339 c330 80bb
000000d0: e328 aa3d 4cc1 dabd 343c 81bc db0c 1cbc
000000e0: a0e5 4dbb 565d e4bd 6307 913f 1cf0 883f
000000f0: 4b79 4cbb 58f3 993e 2f54 86bb d4d1 c33d
0.21003579 0.5479897 -0.011695082 0.54261 1.3063916 0.75508946 -0.70715225 -0.017596142
0.20062247 -0.009682556 -0.023613935 0.16193238 0.08011615 -0.005669791 0.005084189 0.010050474
-0.008323274 0.39950213 0.58168924 -0.009890086 0.08020091 1.322951 0.15111691 0.15422568
-0.07378502 0.14668572 0.08458049 0.02051796 0.72647053 0.8127678 -0.007244704 0.13611981
0.048288185 -0.018591657 0.01306617 -0.010777129 0.024058439 -0.00047747622 -0.024291173 -0.0028958395
-0.095178634 -0.31281853 0.028564233 -0.00044422268 -0.00022224901 0.05158782 -0.026787093 -0.047997206
1.5347264 0.25978613 0.00043415048 -0.003912063 0.0830858 -0.106814 -0.015775777 -0.009524549
-0.0031417385 -0.11150615 1.1330379 1.0698276 -0.0031200226 0.3006847 -0.004099391 0.09561506

conv2.1.bias f4 [64]
00000000: 1d2c bfbe 9c10 1abf 77ae 91bd ecea 693d
00000010: cab2 533e 4c2e 003e d3dd c33d 7657 37bf
00000020: 4c21 f3be 52b1 66be 0415 a1bd 060c 01bf
00000030: ca9d b5be 1239 1ebe 77bb 2ebf 8b3c 18bf
00000040: ed46 05bd 50e2 3dbf f9ef 49bf 02f3 35bf
00000050: 2573 bbbe f1b2 973e dee6 b2be 317a cdbe
00000060: 5508 dbbe 74a0 b6be 991a 30bf cefe ecbe
00000070: 16c8 9bbe 8784 553d f1bf e1be 6cea f7be
00000080: 4ffd c8be 11be 25be 09a5 abbe d4e6 0cbe
00000090: 6aff aabe a6b0 efbd e9ab 4bbe b15e dbbd
000000a0: 3231 14bf b74b 37bf e00a 01be e8b5 1fbc
000000b0: b985 96be 4ddf 8ebe c72e 55be 8c3c 21be
000000c0: c391 39bf 371d 6dbf 10e3 57be b6fe 93be
000000d0: bcbb 01bf 4ea1 b1be cdb3 2dbe 4fae 8fbd
000000e0: 879a 12bf 2e6a 54bf 9202 0e3e 6b26 7abf
000000f0: dcee cfbd 124f 20bf 3d43 fabe 3dcf 0fbf
-0.37338343 -0.60181594 -0.07113355 0.057108805 0.20673671 0.12517661 0.09563794 -0.7161783
-0.4748634 -0.2252858 -0.078653365 -0.5040897 -0.35471946 -0.15451458 -0.682548 -0.5946738
-0.032538343 -0.7417345 -0.78881794 -0.71073925 -0.36611286 0.2962871 -0.34941763 -0.40132287
-0.42779794 -0.3566929 -0.68790585 -0.4628815 -0.3042609 0.05212834 -0.44091752 -0.48421037
-0.3925576 -0.16185786 -0.3352435 -0.13759929 -0.3339799 -0.11703615 -0.19889797 -0.1071142
-0.57887566 -0.71599907 -0.12601805 -0.00974796 -0.29398897 -0.2790474 -0.20818625 -0.15745753
-0.7248804 -0.92622703 -0.21082711 -0.28905267 -0.50677085 -0.34693378 -0.1696312 -0.070156686
-0.5726704 -0.8297452 0.13868168 -0.9771487 -0.10152981 -0.6262065 -0.48879424 -0.56175596

conv2.1.running_mean f4 [64]
00000000: 9010 d2c3 6892 f5c3 7411 0f42 0cc2 4fc5
00000010: 9ac3 d7c4 acf2 f8c4 b02d cec4 fe55 2943
00000020: 116f 4743 783d 8242 93cc 0942 f6af e3c3
00000030: d268 75c3 1318 aa42 06bd 7442 7e09 b5c2
00000040: 91db 9f42 f049 bb42 925e d443 c9aa 4743
00000050: 4538 6bc3 8a7d 10c3 550c eec3 b030 fec2
00000060: 9c97 3ac3 aae1 0ec4 15d4 37c3 6d12 a4c2
00000070: 3b8d 3ac4 e82a c8c4 f0cb 8e42 1115 78c2
00000080: 9275 bdc2 5c7a 8c42 b0ea 48c3 38ab c242
00000090: acb8 c3c2 29cf 9e42 b42e 1a42 a837 d840
000000a0: 4bcf 9bc3 9ba4 8343 5b6a f1c2 7fe5 0cc2
000000b0: e91e 8e42 a6eb 2244 c27c a542 4515 9142
000000c0: 0d47 b6c3 18ef 6cc3 7072 c442 8ca7 ff42
000000d0: 1ec8 0444 4f8a 6642 5e47 9542 a267 f041
000000e0: 5a78 f7c3 8082 0844 c31b 5bc3 bddc 7944
000000f0: 3569 b542 382f 85c2 2adb d742 4ead 0443
-420.1294 -491.1438 35.767044 -3324.128 -1726.1125 -1991.5835 -1649.4277 169.3359
199.43385 65.120056 34.44978 -455.3747 -245.40945 85.04702 61.184593 -90.51854
79.92884 93.64441 424.73883 199.66713 -235.2198 -144.49039 -476.09634 -127.09509
-186.59222 -571.526 -183.82845 -82.03599 -746.2067 -1601.3408 71.398315 -62.020573
-94.72963 70.23898 -200.91675 97.33441 -97.86069 79.40461 38.54561 6.756794
-311.61948 263.28598 -120.707726 -35.224117 71.06037 651.682 82.74367 72.54154
-364.55508 -236.93396 98.22351 127.82724 531.12683 57.635067 74.63939 30.050602
-494.94025 546.03906 -219.10844 999.44904 90.70548 -66.592224 107.928055 132.67697

conv2.1.running_var f4 [64]
00000000: 5d73 8247 4fd5 1149 e329 5c44 d797 fc49
00000010: 8994 8c49 b955 8149 3f37 e649 d577 3744
00000020: 8168 6848 a0e0 0c44 ce4f 1d44 a36c 0348
00000030: bcf1 0247 62e9 f943 161d ee47 e366 5946
00000040: 9f0d 3844 dd25 b347 27ba 7a48 53ef 7847
00000050: 75c1 bc46 031c b949 845a 0a47 bdf3 9147
00000060: 10f7 6e47 6827 8247 a663 9447 cc62 8f48
00000070: 859a cd49 0b7d 6449 0b1c ae43 0c37 3647
00000080: 8177 9946 6107 5a43 998e 5a46 044c cd43
00000090: a7e4 eb45 5223 c243 91cc 2e44 5333 1544
000000a0: 3ea6 db47 fb62 3448 3081 0445 4784 bc44
000000b0: adb5 2d44 5ef1 1448 f006 b643 1b31 0644
000000c0: c4d1 8a49 e5a9 5d48 aa0c 1044 11cc b943
000000d0: 87c3 1d46 6f56 8c43 08d5 b043 a137 7a44
000000e0: 5ec5 5147 c887 af46 6341 8549 e7a5 a149
000000f0: 3854 9943 4b26 ed47 039a 2844 8c3e 7047
66790.73 597332.94 880.6545 2.0692429e+06 1.1516331e+06 1.0595111e+06 1.8859279e+06 733.8724
237986.02 563.50977 629.24695 134578.55 33521.734 499.8233 121914.17 13913.722
736.2128 91723.73 256744.61 63727.324 24160.729 1.5164164e+06 35418.516 74727.48
61175.062 66638.81 75975.3 293654.38 1.6843046e+06 935888.7 348.2191 46647.047
19643.752 218.02882 13987.649 410.59387 7548.5815 388.27594 699.19635 596.80194
112460.484 184715.92 2120.0742 1508.1337 694.8387 152517.47 364.0542 536.7673
1.1372085e+06 226983.58 576.1979 371.59427 10096.882 280.67526 353.6643 1000.8692
53701.367 22467.89 1.0916284e+06 1.3242209e+06 306.65796 121420.586 674.40643 61502.547

conv3.weight f4 [3, 64, 1, 1]
00000000: 91c7 3b3e ac03 d2be 0aa7 30bc 8e17 c33b
00000010: 9340 a4be 2a58 93be 1ff9 a4bd 4a3a 5bbd
00000020: 0c1e cfbe 70e8 343d d013 03bd d844 adbe
00000030: fcb3 60be b2ba 20be b012 b5be 3c02 d73e
00000040: a72d c23d b6ca 8abe fc1b ffbe 2edc 383e
00000050: 640b 133e 26e5 f1be 3113 7dbe 9963 3b3d
00000060: 9589 983c 96b5 4abd db4f 7e3d 0a8e c93e
00000070: 4912 253f ded6 f43d 3148 393d cfb7 32be
00000080: 0471 e2be ba38 20bd 2caf 29bc 4034 d4bd
00000090: 82ef 9d3b 4232 4fbe 66f8 edbd f4ed 9cbd
000000a0: 3053 323e ef26 9b3e c8a2 4cbe 3bef 143d
000000b0: 41c7 65bc 7563 8abe 562e d3bd f4c0 cfbd
000000c0: 302d 0d3f 6bfc 61bd 619b 03be 1a50 0fbd
000000d0: 9405 293e 4976 623c b261 35bd ff53 ed3d
000000e0: 9bca 803d 5aa6 953e 7d70 643e 641e 82be
000000f0: b56c d33d 141f 09be 8896 8fbc 5bb9 77bd
00000100: 8708 23bd 40e1 cabe d14e 80bd adcd 1dbe
00000110: e5de 71be 39d1 01bd 0d22 e53d 433e 7a3b
00000120: 18bb e7bc 4c33 12be 6b4d 81be 6318 883e
00000130: 6bee 9fbe 7877 a43d 3431 333e 22e3 c5ba
00000140: 4257 95be 8b6e 8dbe d448 b93d 0989 4bbe
00000150: 5b2e 3f3e 4cd1 b7be 5504 88be 347e 063d
00000160: 3d2c 1c3d 4205 d03d 8805 d23d becb e13e
00000170: e842 9e3e e259 b9bd 79d3 8ebd 0405 b43e
00000180: d6f6 a7bb 4be0 f5bc 2969 ae3e a700 1e3d
00000190: b841 c4bc bf38 1cbb 3ed6 6b3e 1a1b 8c3d
000001a0: d110 84be 98e9 443e 639b cc3d 0545 173d
000001b0: f827 febb b84d 47be 091d 063d edc5 e7bd
000001c0: e19b fe3e 01ad 133d 62c2 5c3c b040 b0bd
000001d0: 8e84 9dbe 3a5b 7dbd 6bfa 44bd 9279 a2bd
000001e0: 1130 cf3e a8c4 c73d 4723 973e daac 64be
000001f0: e740 5b3b 19ca 4d3e a182 02bc 3a28 ecbc
00000200: ca53 713c 0556 02bf cb6d 55be 7516 27bd
00000210: f6b5 53be 53b3 9a3c 8d1c c8bd f333 3fbd
00000220: 91ee 09be 2ac5 183e 326b 5ebe 4c46 5ebe
00000230: d5b4 6dbe f36f 6cbb 9004 7b3e 51bb df3e
00000240: 94e7 c8bd 6165 94be 6a54 bf3e e7cf 47be
00000250: 3508 073e 835b a7be 63df 8bbe 5848 833d
00000260: 1cfd 17be 418a f53d 8417 3fbe 8132 e03d
00000270: 2a48 ee3e e4e1 64be 9888 01be dc0d 853e
00000280: 1180 cfbd 511e 5ebe ed5e 953d d5cd 81bb
00000290: 7a84 0dbe 446a 273e 89dc 80be 0b19 2c3e
000002a0: e073 253e a6cb aa3e 2c31 84bd 5167 25bc
000002b0: a651 38be a0a9 153e b9c4 0a3e 16a4 98bd
000002c0: 6522 fb3e a213 48bc df2c e03d 033c 823d
000002d0: 1dec 7bbc 4754 b03c 226b 8f3c aa79 2cbe
000002e0: ddd2 613e 1e5d e33d f7ed 9b3e 9ed2 9ebe
000002f0: 97b0 883e b7a2 793e e3f8 fbbb f238 3bbe
0.18337847 -0.41018426 -0.010782013 0.0059537357 -0.32080516 -0.287782 -0.080553286 -0.053522386
-0.4045261 0.044166982 -0.032001317 -0.33841586 -0.21943659 -0.15696219 -0.3536582 0.41993892
0.09481364 -0.2710778 -0.49826038 0.18052742 0.14359814 -0.4724514 -0.24714352 0.04574928
0.018620292 -0.04948958 0.062087875 0.3936618 0.64481026 0.11955045 0.045234863 -0.1745293
-0.4422685 -0.0391166 -0.010356706 -0.103615284 0.0048198113 -0.20234016 -0.11619644 -0.076625735
0.17414546 0.3030314 -0.19983971 0.03636096 -0.014024557 -0.27029005 -0.10311572 -0.10144225
0.55147076 -0.055172365 -0.12852241 -0.0349885 0.16506034 0.013822147 -0.044282623 0.115882866
0.06288644 0.2922848 0.22308536 -0.2541381 0.103234686 -0.13390762 -0.017527834 -0.060479503
-0.039803054 -0.39624977 -0.06265033 -0.1541049 -0.23620184 -0.03169367 0.11188135 0.0038184084
-0.028287455 -0.1427738 -0.25254378 0.26581106 -0.31236586 0.08030599 0.17499238 -0.0015097598
-0.29168135 -0.276234 0.09047094 -0.19876494 0.18670027 -0.35901868 -0.26565805 0.0328352
0.038128126 0.10157253 0.10254961 0.44100755 0.3091042 -0.09050347 -0.06973929 0.35160077
-0.0051258607 -0.030014178 0.34064606 0.03857484 -0.023957118 -0.0023837534 0.23030946 0.06841107
-0.2579408 0.19229734 0.09990575 0.036931057 -0.0077562295 -0.19463241 0.032742534 -0.11317048
0.497283 0.03605366 0.013474079 -0.08606088 -0.30765194 -0.06185458 -0.04809038 -0.07933344
0.4046636 0.09754306 0.29519102 -0.22331563 0.0033455433 0.20096625 -0.007965715 -0.028827775
0.0147294495 -0.50912505 -0.20842664 -0.0407929 -0.20674881 0.018884337 -0.09771071 -0.046680402
-0.13469912 0.14918962 -0.2172058 -0.21706504 -0.23213513 -0.003607747 0.24513459 0.436976
-0.09809795 -0.28983596 0.3736909 -0.19512902 0.13186724 -0.32687005 -0.27318868 0.06410283
-0.14842647 0.119892605 -0.18661314 0.10947133 0.46539432 -0.22351795 -0.12649763 0.25987136
-0.101318486 -0.21691252 0.07293496 -0.0039613047 -0.13820067 0.16349131 -0.25168255 0.16806428
0.16157484 0.33358496 -0.06454691 -0.010095433 -0.17999896 0.14615488 0.13551606 -0.07453172
0.49049678 -0.012211712 0.109460585 0.063591026 -0.015376118 0.021524562 0.01750714 -0.16843286
0.22053094 0.11101745 0.3045499 -0.31020063 0.26697227 0.24378477 -0.0076895817 -0.18283442

conv3.bias f4 [3]
00000000: f374 473f f091 083f 63be e93e
0.77912825 0.5334768 0.45653066
